results/model.pth (torch_old, 88668 bytes, 8 tensors)

conv1.weight f4 [10, 1, 5, 5]
000000 94 06 10 3e 06 94 08 3e 9a 89 5d 3e 42 61 ea 3d
       0.1406501 0.13337716 0.21634522 0.11444332
000010 24 bb e6 3d 1b 22 8f bd 0f 23 a9 3e 61 00 44 3d
       0.11266163 -0.06988927 0.3303456 0.047851924
000020 1f 87 b8 3d ab d7 eb bd 92 ae e7 3d f9 09 e0 3e
       0.09010147 -0.11515745 0.113125935 0.4375761
000030 99 2f 7d 3e 91 6d 82 3e a7 df 40 bd 30 ca 83 3e
       0.24725188 0.25474218 -0.04708829 0.25740194
000040 5c f8 66 3e 2b 50 8e 3e 77 0e e1 3d 53 b7 8f 3e
       0.22555679 0.27795538 0.10989087 0.28069553
000050 23 3a 33 3d 52 fa b9 3d a3 d0 b2 bc fb 2b 0f 3c
       0.043756615 0.09080948 -0.021828001 0.008738513
000060 26 41 49 bd 95 d2 67 3d 30 57 7e bc 0e c2 84 3d
       -0.049134396 0.05659731 -0.015523717 0.064823255
000070 f1 a3 a9 3d da b1 5d be 3f 0e 76 bd 95 d4 2e be
       0.082832225 -0.21649876 -0.06007218 -0.17073281
000080 81 d8 82 3e 32 1b 13 3c 61 28 1f bd 57 fd 06 3e
       0.25555804 0.008978652 -0.038856868 0.13182579
000090 00 73 82 bc 76 79 c4 3d c9 a8 11 3e b5 2d a3 3d
       -0.015923977 0.09593479 0.14224543 0.07967702
0000a0 a3 14 a3 3e a9 b8 b6 3e 91 ec 69 3e 8d 8f 8f bc
       0.31851682 0.3568776 0.22844149 -0.017524505
0000b0 fa 57 f7 bd b6 5b 5c 3e 6c 06 7b 3c 33 2b 37 3e
       -0.12077327 0.2151936 0.015321355 0.17887573
0000c0 3b e4 1f 3e d6 33 c3 bd 5d a2 2d be 19 10 09 3d
       0.15614407 -0.09531371 -0.16956468 0.033462618
0000d0 15 61 16 bd e6 ae 1c 3e 77 fc 62 3d dc 6c ed bc
       -0.03671368 0.15301093 0.05541655 -0.028982572
0000e0 b5 7a 85 bd 36 c4 59 3e 59 6c 5f 3e 7a fe f1 bd
       -0.06517545 0.21266255 0.21818675 -0.11816116
0000f0 5d 39 9e bd b3 28 52 3e f6 66 4b 3e d9 88 9c bd
       -0.07725785 0.20523338 0.19863495 -0.07643289
000100 b2 65 f2 bd cc 1a f8 3d 74 7c 85 3d ea 94 46 3e
       -0.11835803 0.12114486 0.06517878 0.19392744
000110 24 a1 b5 bc e2 92 20 be 06 25 74 3e fc 38 18 3e
       -0.022171564 -0.15681031 0.23842248 0.14865488
000120 b5 50 97 3c 22 59 6f bd fd ac 1f be 5b 6f 2c be
       0.018471101 -0.058434613 -0.15593334 -0.16839354
000130 dc 36 58 be da 28 4f be 3d fd 5a bd 85 23 d0 3e
       -0.21114677 -0.20230427 -0.053464163 0.406521
000140 2b 98 50 be 82 a2 6e be 47 04 2b bc ce 3a 21 3d
       -0.20370547 -0.2330418 -0.0104380315 0.03936272
000150 7f 3a c2 3e 17 2e 88 be 1a 1f 8d be 8c 66 00 3e
       0.37935254 -0.26597664 -0.2756279 0.12539119
000160 3b 5a 2c 3e 80 30 b9 3e 06 ac 7e be 43 21 14 3e
       0.16831295 0.36169815 -0.24870309 0.14465813
000170 33 cc 0e 3e 2e f0 88 3e 0d 81 3f 3e 42 e3 f4 3d
       0.13945083 0.26745743 0.18701573 0.119574085
000180 8a 5d 08 bd a5 27 47 bd 67 99 90 3e 1c 70 86 3d
       -0.03329233 -0.048621792 0.28242037 0.06564352
000190 58 35 f6 3c de a2 51 3c 07 5f a8 3e a4 51 f0 3d
       0.030054733 0.012795178 0.32885 0.11734322
0001a0 be 5a 10 3e 18 d8 36 bd f4 34 ca bd 9c 33 39 bd
       0.14097115 -0.044639677 -0.09873381 -0.045215234
0001b0 ab eb 3f 3e ff 86 29 3e e1 d9 66 be fc a4 88 bc
       0.18742244 0.16555403 -0.22544052 -0.016680233
0001c0 b6 43 fb 3d 23 df 86 be 0b b7 6d be 2c fa 58 bd
       0.12268774 -0.26342115 -0.23214357 -0.052972957
0001d0 1a d4 0c be bb 1d 8f be 02 be b7 bc dd 95 27 be
       -0.13752785 -0.2795237 -0.02242947 -0.16365762
0001e0 1d dc b7 bc 5c 91 34 bd 8d 9c 59 be 0c 2f 4c 3d
       -0.022443825 -0.044083938 -0.21251126 0.049849555
0001f0 5f 1f 28 bd 2c 93 0f bd ea ec 34 3e aa f9 c9 3c
       -0.041045543 -0.035052463 0.176685 0.024655182
000200 a0 d2 23 bd fd e6 ba be 55 75 34 3e aa d8 52 bd
       -0.03999579 -0.36504355 0.17622884 -0.05147616
000210 27 2d d7 bd 95 c3 a3 be 7b 1d b2 be da 29 90 3e
       -0.10506659 -0.31985155 -0.34788117 0.2815693
000220 65 01 7c 3e 32 1b 8b 3e e5 14 84 3c 95 6c 13 be
       0.24609907 0.27169186 0.016123245 -0.1439689
000230 b6 74 45 3e 7c 8d cc 3e 73 9b ca 3e 19 d6 a2 3e
       0.19282803 0.39951694 0.39571723 0.3180397
000240 a4 05 a7 ba 5b dd 03 3a 4e 97 7b 3e 7e c6 b9 3d
       -0.001274277 0.0005030238 0.24569437 0.090710625
000250 a6 4d ab 3e 4f 87 85 3d a9 ae d4 3d 1c 68 73 bd
       0.3345768 0.06519949 0.10384876 -0.05942546
000260 6e 8e d8 3c 46 7b 38 3e 3e 48 83 3e ee 2e ef 3d
       0.026435103 0.18015775 0.25641054 0.11678873
000270 cf b6 00 3e d6 83 e9 3c a5 46 18 bc 11 00 f3 3d
       0.12569736 0.028505247 -0.009294187 0.11865247
000280 15 88 b9 3e 5a 8e 56 3e 23 b9 9a 3e c6 95 e4 bd
       0.36236635 0.2095274 0.30219373 -0.111613795
000290 1f 90 c3 3d 43 29 35 3e 88 4c 3b 3e 4a 5b c7 3d
       0.09548973 0.17691521 0.18290913 0.09734209
0002a0 46 ec 49 3e f3 df 05 be 51 a6 89 be 7b df 8b be
       0.19719037 -0.13073711 -0.26884702 -0.2731894
0002b0 9d 40 97 be 70 29 a0 be 9f 2f 4c 3d 69 65 a6 3c
       -0.29541484 -0.31281614 0.049850103 0.020312028
0002c0 50 b6 b3 3d 79 f7 87 be 1e 1a 6d be 2b ba 36 be
       0.08775008 -0.26555994 -0.23154494 -0.17844455
0002d0 bb 66 09 be 11 73 78 be a9 1b d0 bd 0e 8e 82 be
       -0.13418095 -0.24262644 -0.10161526 -0.25499004
0002e0 45 c5 03 be 96 f6 48 3e 75 1b 6b bd 11 e0 47 bd
       -0.12868221 0.19625315 -0.057399232 -0.04879767
0002f0 fe 73 fa bd bd 6b d2 3d 08 72 2c 3c d4 29 83 3e
       -0.12229155 0.10274456 0.010525234 0.2561785
000300 eb 5b 5b 3e e1 91 36 3e 5a 1b dd 3d 05 40 89 3e
       0.21421783 0.17829086 0.107962325 0.26806656
000310 25 6a 7f 3e 20 31 74 3d 49 87 d1 3d a5 66 5f 3e
       0.24942835 0.05961716 0.10230882 0.218165
000320 e1 54 23 3e 58 24 1f be 1b ab db 3d f5 b6 59 3e
       0.15950347 -0.15541208 0.10725995 0.21261199
000330 3f b7 31 3e a6 59 1d be b6 b1 5d be b3 12 1e be
       0.17355059 -0.1536623 -0.21649823 -0.1543682
000340 19 25 a8 bc bd a7 4f 3d 4c 12 ba 3c e9 2f 67 bd
       -0.020525502 0.050697077 0.022713803 -0.056442175
000350 91 f7 ac bc b1 a8 46 3d 51 64 2a 3e 35 ff 2b be
       -0.021114143 0.04850072 0.1663983 -0.16796573
000360 3e 34 56 be c9 b5 07 3e 2d 38 9f 3c f1 84 7b bd
       -0.20918366 0.1325294 0.019435966 -0.06140608
000370 0d f7 3e be 82 30 4d be 37 cf 2a bc 6c a9 0a 3e
       -0.1864893 -0.20038036 -0.01042538 0.13541192
000380 0b f2 55 3e 1c 78 25 3e 65 10 8e 3e c3 7a 04 3e
       0.20893113 0.161591 0.27746883 0.12937455
000390 75 82 0f be da 9a 4e be 58 b3 23 3e 59 f7 65 3e
       -0.14014609 -0.20176259 0.15986383 0.22457637
0003a0 ab 22 15 be a9 ee 1a be 8c bb 62 be e8 f6 5f 3e
       -0.14564006 -0.15130104 -0.22141856 0.21871531
0003b0 cd fe 45 3d cf 90 3b 3e 75 ef 7e be c9 b6 7e be
       0.0483387 0.18316959 -0.24896033 -0.24874415
0003c0 98 e1 62 3d 2e 38 7f 3e 62 06 3c be 0f dc d3 bd
       0.055390924 0.24923775 -0.1836181 -0.10344707
0003d0 84 0a d5 bc 63 75 5e 3d 96 0c 45 3e 4b 54 bb bd
       -0.02600599 0.054311167 0.19243082 -0.09146937
0003e0 1c 83 3d be 15 73 79 bd
       -0.18507046 -0.060900766

conv1.bias f4 [10]
000000 de e0 97 3e d6 e1 05 3e d0 d1 01 be 08 4e fa 3d
       0.29663748 0.13074431 -0.12677693 0.122219145
000010 68 47 36 3e 22 9f 8d 3e f2 91 1a 3e 5c 34 22 3e
       0.17800677 0.2766047 0.15094736 0.15840286
000020 51 ac 9e 3b c7 54 92 bd
       0.004842319 -0.07145076

conv2.weight f4 [20, 10, 5, 5]
000000 ae 1a ee 3c eb 6a 93 3d 5c 85 01 bd 86 61 2b 3d
       0.029065456 0.07198127 -0.031621322 0.041841052
000010 b5 ae e8 bc 36 3b 0e 3c 56 99 a8 3c 7d aa de bc
       -0.02840362 0.008681109 0.020580929 -0.027180905
000020 96 26 1b 3d f9 20 0c 3d 16 33 b1 3c e7 14 a3 bc
       0.037878595 0.034211133 0.021630805 -0.019907428
000030 1d 13 84 bc 09 72 15 3d fb af b5 3d 35 83 eb bc
       -0.016122395 0.036485706 0.08871456 -0.028749088
000040 e6 b7 c8 3d 88 bf 75 bc 9f 5d a8 3d 3d 98 bc 3d
       0.09800701 -0.014999278 0.08220982 0.09208725
000050 3c a7 75 bd eb 7d b6 bd 6f 0b d8 ba d1 cc 00 bd
       -0.05997394 -0.08910736 -0.00164829 -0.03144533
000060 7a 8f 26 3d a7 07 3d 3d 8b 91 cb bc 4a 8d 84 3d
       0.040664174 0.046149876 -0.024849674 0.06472261
000070 e6 76 5e 3d db 2f 06 3d 46 f7 8d 3c 54 22 eb bc
       0.05431261 0.032760482 0.017329823 -0.028702892
000080 09 e1 03 3d 8a c2 82 3c f7 e9 a6 3d 3f 9d 36 3d
       0.032197032 0.015961904 0.08150094 0.044583555
000090 c5 27 c3 3d 8d 31 cc 3d 81 8a 88 3c cd 2b 8b 3d
       0.0952907 0.099703886 0.016667606 0.06795464
0000a0 5c 14 ff 3c 66 43 51 bc 20 1b 2e bd bd c9 48 bc
       0.031137638 -0.012772417 -0.042506337 -0.012255129
0000b0 8b a0 bc 3d ec 4c 43 bd 71 c2 bb bd bf e4 27 bc
       0.09210309 -0.04768078 -0.09167946 -0.010247408
0000c0 84 75 bd ba ec 95 9f bd db 36 6e bc 22 49 86 3d
       -0.0014454578 -0.07792267 -0.014539446 0.06556918
0000d0 48 ec d8 bc 6f ec b8 3c 8a 12 66 bd bd cc 3c bb
       -0.026479855 0.022573678 -0.056170024 -0.0028808557
0000e0 84 46 65 3d 0e b6 bb bc 48 ba 92 3d 54 d9 da 3d
       0.055975452 -0.022913959 0.071644366 0.10685983
0000f0 16 9c 90 3b 95 25 7e bc 4c af cb 3c 46 b5 55 3d
       0.004413138 -0.01551189 0.024863862 0.05217483
000100 d8 25 37 3d 3e 91 d9 bb 56 71 36 bd 35 f6 d3 3c
       0.044713825 -0.0066396287 -0.04454168 0.025874237
000110 af a4 2b bd c1 30 92 bc 3c c7 37 bb 1c 23 1a bd
       -0.0419051 -0.017845513 -0.0028042337 -0.03763114
000120 ad 42 db 3c 9a 9f d4 bd a1 eb c9 bd 24 ed 27 3d
       0.026765192 -0.10382004 -0.09859396 0.04099764
000130 4a 0b a7 3d 97 70 cf 3c d7 68 89 bd 65 ad 91 bd
       0.0815645 0.025322242 -0.0670945 -0.071131505
000140 e2 cf 35 bd ee 26 68 bc 85 6d 9b 3d 37 bb 3a 3d
       -0.044387706 -0.014169438 0.075892486 0.0455887
000150 aa 3b 02 3b 72 dc 7a 3d 58 cd 13 3b 83 dc 39 3d
       0.0019871988 0.06124539 0.0022552814 0.045376312
000160 c4 6c f0 3d cb 47 15 bc 30 0e 54 3d c7 a4 07 bd
       0.117394954 -0.009111355 0.051771343 -0.03311613
000170 0a 20 89 bc b3 bf d4 bc 44 a9 42 3d 5a 7f a3 bd
       -0.01673891 -0.025970316 0.047524706 -0.07983275
000180 b1 ae 6e bd 07 a0 fc bb 74 51 21 3d 2e 12 bc bd
       -0.058272067 -0.0077095064 0.03938432 -0.09183155
000190 4e de c0 bc 10 6b a7 bd 86 15 96 bc 75 09 84 bd
       -0.023543503 -0.081747174 -0.01832081 -0.06447116
0001a0 c1 9d 87 bd fa 0d d1 39 2a 41 87 bd ea 11 8c bd
       -0.06621886 0.00039874 -0.06604226 -0.06839354
0001b0 44 82 c3 bb 54 e7 60 bc 0a 49 6b bd 4e fa 1c bd
       -0.0059664566 -0.013727028 -0.057442702 -0.038324647
0001c0 c4 85 67 bd 51 ac 75 bd e6 8c 93 bd 56 f9 e0 3c
       -0.056524053 -0.059978787 -0.072046086 0.027462643
0001d0 95 e2 63 3c 43 c6 25 bd 00 67 a3 bd 4e ac 2b 3d
       0.013909002 -0.04047228 -0.0797863 0.04191237
0001e0 88 67 89 3c 58 7d 5a 3d ac 01 bf bd 12 e6 08 3c
       0.016773 0.053342193 -0.09326491 0.008355634
0001f0 66 09 e6 bc 86 6b ba bc 60 28 44 bc d6 d5 cc bc
       -0.028080653 -0.02275635 -0.011972517 -0.025004309
000200 7a 38 2f bd 33 cc ac bc cf 4c 82 bc 0c 38 51 bd
       -0.04277847 -0.021093464 -0.015905766 -0.05107884
000210 5c d8 ff bc cc ea 96 bd 05 22 40 3c ea 42 dd 3d
       -0.031231098 -0.07369003 0.011726861 0.108037785
000220 42 fa f9 3b d5 73 d6 bc 2b 42 0e 3d 91 79 b9 bb
       0.00762871 -0.02617828 0.03473107 -0.005660244
000230 f4 ef b1 bb c7 d6 d5 bb 56 14 c0 3c ea d4 66 3d
       -0.005430216 -0.0065258476 0.023447197 0.056355394
000240 78 a2 b9 3d 3f 5f 23 be 6b 01 e1 bd eb 63 ba bd
       0.090641916 -0.15954302 -0.109865986 -0.09101089
000250 2a 86 09 3c 69 db 69 3d 48 d5 96 bd 4f 4b 24 3c
       0.008393804 0.05709401 -0.07364899 0.010027721
000260 2e 92 ca bc 05 12 0e bd 56 f1 21 bd cc 5c 9b bc
       -0.024727907 -0.034685154 -0.039536797 -0.018965147
000270 aa c3 cb bc 26 18 04 3d df 4a 3d bd b2 7f 82 3d
       -0.024873573 0.032249592 -0.04621398 0.06372012
000280 ad 2b 1a bd 65 d7 8b 3d b6 02 6f bd 11 c8 a4 bc
       -0.03763931 0.068281926 -0.058352195 -0.02011493
000290 08 54 10 3d 0d 75 05 3d 6f 68 9a 3d 2e da 2e bd
       0.03523639 0.03258233 0.075394504 -0.04268854
0002a0 4a bb ab bd 9f 39 63 3c b5 43 84 bd b3 39 14 3c
       -0.08385332 0.013868718 -0.064582266 0.00904696
0002b0 fa 05 ad bc f8 d0 55 ba d4 74 83 3c 73 aa 66 bd
       -0.021121014 -0.0008156444 0.016046919 -0.056314897
0002c0 32 01 ec 3c 6e 0c 55 ba a7 0b 26 bd 19 5e 06 bd
       0.028809164 -0.00081271573 -0.040538456 -0.032804582
0002d0 25 ad c5 bc cf 1c 8d bd 00 64 d4 bc 8e 57 94 3b
       -0.024130413 -0.068902604 -0.02592659 0.004527039
0002e0 40 5a c7 bd 4a b8 19 3b 28 4d 0e bc ec 1a 17 bd
       -0.09734011 0.0023455792 -0.008685388 -0.03689091
0002f0 95 f2 98 bc d1 16 20 bd e9 8d 8f bd 57 71 c1 bd
       -0.01867036 -0.03908426 -0.07009489 -0.09445446
000300 a4 1b f7 bb 97 2a bb bd 64 6d 00 bd 3b c9 94 bc
       -0.007541137 -0.09138983 -0.031354323 -0.01816236
000310 76 66 5b bc 26 68 0a bd d8 d7 e8 ba ca 47 cc 3c
       -0.013391128 -0.03379073 -0.0017764522 0.024936575
000320 7d f1 d2 3c fe 08 40 bd c2 cb d1 bc 8b 17 4d bd
       0.025749916 -0.046883576 -0.025609855 -0.05007128
000330 0b 66 66 bd 48 38 b9 bc 02 54 49 bd e0 a2 f6 3a
       -0.05624966 -0.022609845 -0.04915238 0.0018816851
000340 fa f4 9d 3c 28 cc 6c bb 53 ab 79 bd 67 fc 3e 3c
       0.019281853 -0.0036132429 -0.060954403 0.011656857
000350 f4 64 1c 3d ee 28 85 bc 98 0d f9 bc f8 05 3d 3d
       0.038182214 -0.016254868 -0.03040199 0.04614827
000360 94 31 fd bc f5 5d fb bc 15 a8 4c 3d 7e ad 66 bd
       -0.03090743 -0.03068445 0.049964983 -0.0563178
000370 d1 10 d1 3c e4 ac 4c 3c cb 9d ad 3c 11 d0 83 3d
       0.025520714 0.012492392 0.021193406 0.0643617
000380 61 78 d8 bc 93 5b 61 bd 0c 4c 5e bd 0d 62 01 bd
       -0.026424589 -0.055018973 -0.054271743 -0.03158765
000390 23 c3 ad 3c ff 36 58 bd 88 71 09 bd 7c 0c 3e bd
       0.021211213 -0.052786823 -0.033555537 -0.046398625
0003a0 1c 66 7c 3d 01 e9 a4 3d 2d 73 18 3c 5c d2 de bc
       0.061620817 0.080522545 0.009304804 -0.027199917
0003b0 d9 e4 4f 3c 06 da d4 bc 11 67 80 3d 1e b1 f1 3d
       0.012688839 -0.025982868 0.06269658 0.118013605
0003c0 1a 53 a4 3b af 98 22 bd e4 fc 98 bc 2d ad fc bc
       0.0050147893 -0.03969639 -0.018675275 -0.030844295
0003d0 20 c2 81 bc 4f 8e 02 bd 05 0f 3b bd dc a7 1d 3c
       -0.015839636 -0.031873997 -0.04566862 0.00962254
0003e0 f1 d4 f6 bc 5c e2 20 bc 75 5e 96 bd bc ac 4e bd
       -0.030130835 -0.009819593 -0.07342235 -0.0504577
0003f0 85 21 57 3d 21 0a f0 bb 1d ec 97 3d 0c e4 8a bc
       0.0525222 -0.007325426 0.07418082 -0.016954444

conv2.bias f4 [20]
000000 13 55 77 bd bd f5 58 3d 9b 7b 33 3d d0 dd 8d 3c
       -0.060383867 0.05296873 0.04381905 0.017317683
000010 54 2f a2 3b be 39 93 3c 19 fa 91 bd 71 4b ae bc
       0.0049494896 0.01797187 -0.071277805 -0.021276208
000020 56 a4 60 bc 1f 00 44 bd f6 12 fd 3b 7f 26 32 bd
       -0.013711056 -0.047851678 0.0077232076 -0.043493744
000030 b6 8f 8b bd d6 fc 93 bc 72 b1 2a bd e1 97 2e 3d
       -0.0681452 -0.018064898 -0.04167313 0.04262531
000040 08 61 8c 3d b0 e9 c5 bc b3 6e e9 bc 37 d6 09 3d
       0.06854445 -0.024159282 -0.028495168 0.033651557

fc1.weight f4 [50, 320]
000000 d2 fc 4f 3d 5f f0 2b 3d 15 f8 1a 3d 1e 4d ea bc
       0.050778218 0.041977283 0.037834246 -0.028601225
000010 28 b3 f5 bd 1e f4 c2 bb 21 a2 0e bd 5d 76 aa bc
       -0.11997062 -0.005949511 -0.034822587 -0.020808393
000020 e9 86 af 3c 3a c2 d7 3c 04 42 2e bc 16 40 03 3d
       0.021426635 0.026337732 -0.010635857 0.03204354
000030 4a 49 79 3d 67 04 77 3d 17 b4 3d bd 1c 5b a6 bc
       0.06086091 0.060306933 -0.046314325 -0.020307116
000040 cf 06 9f 3d 3d cb 51 3d f9 e3 a9 3c e5 24 67 bd
       0.077649705 0.051219214 0.020738589 -0.05643167
000050 9a e2 88 3d fb fd 8f 3d 0f cf d2 3c a8 4c 01 3d
       0.06683846 0.07030865 0.025733499 0.031567246
000060 16 58 60 3d 95 f6 4d bd 98 98 83 3b 83 ec 80 bc
       0.054771505 -0.050283987 0.0040159933 -0.015737778
000070 79 03 47 bd ad ff ec bc ab b8 98 3c d1 2a 43 3d
       -0.048587296 -0.02893051 0.018642744 0.047648255
000080 76 74 18 3d 10 f1 56 3b 5e 5e 72 3c 1f 32 33 3d
       0.03722044 0.0032797493 0.014793007 0.04374897
000090 3d 56 dc bc 85 2e 3b 3d 80 44 36 bd 6b 41 54 bd
       -0.02689659 0.04569866 -0.04449892 -0.0518202
0000a0 f4 ff 3a bd 9a 09 22 3d 48 5d a7 bc 85 9e 0b bd
       -0.045654252 0.039559938 -0.020430222 -0.034086723
0000b0 45 e0 88 3d 83 e7 3a 3d 07 42 07 3b b1 f1 26 bc
       0.06683401 0.045630943 0.002063872 -0.01018946
0000c0 1c 88 99 bd 6d 15 04 bd 9d 8a 0a 3d 3d 91 aa 3d
       -0.07496664 -0.032246996 0.0338236 0.08328483
0000d0 33 53 82 bd 82 f1 8f 3c ad 82 85 3c 73 26 b7 3c
       -0.06363525 0.017571215 0.016297663 0.022357201
0000e0 4d 6c 5d bc 99 2b 57 bd ae 7c ac bb 5b 86 90 bd
       -0.01351459 -0.052531812 -0.0052638864 -0.07056876
0000f0 b1 b8 34 3c 45 62 4b bd 29 19 13 bd e6 9a 2f 3d
       0.011030362 -0.049654264 -0.035912666 0.042872332
000100 13 3b 92 bd e6 54 5b bd e3 ab 8b 3c ec 72 90 3c
       -0.07140174 -0.053547762 0.017049735 0.017632924
000110 47 a0 17 bc c5 12 bf 39 a7 ac 16 39 5e d7 24 3d
       -0.009254522 0.00036444343 0.00014369433 0.040244453
000120 5b f9 1c 3d 18 a5 d1 bc 05 08 fc 3c 7c fd 36 bb
       0.03832374 -0.025591418 0.030765543 -0.0027922085
000130 10 74 05 3d 33 2f fe 3c a8 fc 27 3c 49 1f 71 bd
       0.03258139 0.031028366 0.010253109 -0.058867726
000140 76 2e a9 bc 54 7e 27 bd 83 a9 12 3d 73 64 98 bb
       -0.020652037 -0.04089196 0.03580619 -0.0046506464
000150 ca 55 07 bd d1 50 fe bc bf a1 a6 3c 4d 0f 32 3d
       -0.0330408 -0.031044396 0.020340798 0.043471623
000160 88 1a ec 3b 9c 69 36 bd d1 ad 69 bd 7d 8d 22 3c
       0.007205311 -0.04453431 -0.05705053 0.009921429
000170 ca 62 1b 3d 19 b8 05 3c a4 98 52 bc 7e 89 c8 bc
       0.03793601 0.008161568 -0.012853775 -0.024479624
000180 04 2c 01 3d de 41 6f bd a3 a3 d4 bd e9 fb aa 3c
       0.031536117 -0.058412425 -0.10382774 0.020872073
000190 8e 76 ae bd 87 6b 0e bd 74 e3 98 3c 9f fe b8 3d
       -0.08518706 -0.034770515 0.018663146 0.0903294
0001a0 08 92 53 3d 18 f3 3d 3d be 7a 9f bc 24 95 97 bb
       0.051652938 0.04637441 -0.019467708 -0.0046259332
0001b0 c0 95 60 3d 26 3c 06 bc cb e0 83 bc 5a 7a b3 bd
       0.054830313 -0.008193051 -0.0160984 -0.08763571
0001c0 f1 1a 32 3c 7b 04 c5 bc 0f 38 bf bc 82 5d 2f 3d
       0.010870681 -0.024049988 -0.02334216 0.042813785
0001d0 10 f8 98 bd 60 b6 f0 bc a1 7d 47 3d c6 f0 e8 bc
       -0.07469189 -0.029383838 0.048703793 -0.028435122
0001e0 47 c7 91 3d c8 f4 a9 3c 78 7e 19 3d 1c b9 dc 3b
       0.07118087 0.020746604 0.037474126 0.006735934
0001f0 6f 61 87 bb 16 78 fc bc ac 5e e0 3c ef ed 90 3c
       -0.004131488 -0.03081898 0.027388893 0.01769158
000200 2e 38 6d bd 61 f6 98 3c 6b 24 0c 3d 5e d3 51 3d
       -0.057914905 0.01867217 0.03421442 0.051226966
000210 d5 6b 32 3c ca 15 bd bc 3f c7 30 3b 97 ea 99 bd
       0.010889967 -0.023081679 0.0026974229 -0.075154476
000220 f8 fe 3b bc 8e ee df 3c ad 3c ad 39 6d 04 f6 bc
       -0.0114743635 0.027335431 0.00033042338 -0.030031407
000230 02 9c 9d bc 7b bf 8f bc cb 58 fe bb e8 67 c2 3c
       -0.01923943 -0.01754736 -0.00776205 0.023731187
000240 d8 9b 69 3a 8a 72 a2 3b a1 7a bc bd ed ec 9b bc
       0.0008911467 0.004957502 -0.09203077 -0.019033873
000250 a0 69 9f bd e5 73 47 bd 9e af c4 bc fd ee 16 bd
       -0.07783818 -0.04869451 -0.024009522 -0.03684901
000260 71 56 a0 3d 3d 62 9e 3d 54 d2 ad bc e3 64 6d bc
       0.078289874 0.07733581 -0.021218456 -0.014489385
000270 8a 01 16 3d 89 99 c7 bc 04 e3 89 3c a6 ca 29 bd
       0.03662256 -0.024365203 0.016831882 -0.041453026
000280 e4 02 43 3c f2 3a 9f bc 82 f7 f4 bc 83 2d c7 bc
       0.011902545 -0.019437287 -0.029903177 -0.024313694
000290 ba 16 9c bc 17 5d 0d bc 2a ab b7 3d fb 27 9c 3c
       -0.019053806 -0.008628151 0.08968194 0.019062033
0002a0 e5 cb 13 3e 82 51 4b 3c 39 42 84 3c ed 2a 76 bd
       0.14433248 0.01240957 0.016144859 -0.06009953
0002b0 1e dd 29 bd 0f a6 d5 bc a5 e5 0d 3d 7f 5a 90 bd
       -0.04147064 -0.02608016 0.034642834 -0.07048511
0002c0 a3 5e 0b 3d 01 47 e4 bb 71 9c d2 3b f1 7d 0b bd
       0.0340258 -0.006966472 0.0064273407 -0.034055654
0002d0 42 23 33 bc d8 33 25 bc c4 e6 09 3d f5 02 96 3b
       -0.010933699 -0.010083161 0.03366734 0.004577989
0002e0 c5 c3 77 bc 96 37 d5 3b af d9 d3 bc 0d b7 d3 3d
       -0.015122359 0.0065068705 -0.025860636 0.103376485
0002f0 d6 ee 84 3d f6 49 3d bd a0 92 48 3d be 7f 60 bd
       0.06490867 -0.046213113 0.048967957 -0.054809324
000300 30 7f 6e 3c 5a 5c 13 bd 6a dd 0e bd 03 81 22 3d
       0.014556691 -0.035976745 -0.034879126 0.039673816
000310 c9 af be bd 6c b0 d6 3b b1 15 a6 3d 47 c5 15 bd
       -0.09310872 0.006551793 0.08109606 -0.03656509
000320 b3 98 4d 3c 42 e0 be 3d 54 17 65 3c 68 c6 6a bc
       0.012548613 0.093201175 0.013982613 -0.01432953
000330 e8 5b 22 3d 10 86 58 37 9c 53 e3 bb 8f 52 09 3d
       0.03963843 1.2905817e-05 -0.0069374572 0.033526
000340 90 33 ba 3d 74 17 90 3c 05 2e 12 bc e7 3e 58 bb
       0.09091866 0.017589308 -0.008922105 -0.0032996477
000350 e1 26 dc 3d 60 3d a3 3c 6b 8b 3e 3c de ba 1f 3c
       0.10749603 0.019926727 0.0116299195 0.009749142
000360 1d 89 94 3d 7b a5 44 bd 52 fe 53 bd 0f 37 72 3d
       0.07252715 -0.048009377 -0.05175621 0.05913454
000370 6d 88 af bc 0f ad 2e 3d 8a f5 a0 3b 46 6c 3a 3d
       -0.021427358 0.04264551 0.004912083 0.045513414
000380 05 03 c4 3d 25 41 29 3d 46 01 ac ba 74 55 2f 3c
       0.095708884 0.041321892 -0.0013122938 0.010701526
000390 80 0d 26 bc e1 69 f9 bc 4f 61 b9 bd b4 4e 2a bd
       -0.010135055 -0.030445995 -0.09051763 -0.041578963
0003a0 1d 55 0b be b5 c2 a7 bb f9 47 90 3d 4d 76 1b 3d
       -0.13606687 -0.0051196464 0.07044978 0.037954617
0003b0 c8 c7 7f bc b0 db 51 3d 0f 78 b0 3c 33 ee ac ba
       -0.015611596 0.0512349 0.021541623 -0.0013193547
0003c0 ad 3a 24 3c a2 ac 79 bd 4c 5c a9 3c 87 32 c2 3c
       0.010023755 -0.06095565 0.020673893 0.023705734
0003d0 e2 c1 1a 3b e6 e1 15 3d b8 29 06 3b 5c cb c2 3c
       0.0023614098 0.036592387 0.0020471644 0.02377861
0003e0 99 02 c8 ba 0f e9 0c bd d6 ec 9c 3d a2 89 b9 3d
       -0.0015259563 -0.03440195 0.0766236 0.090594545
0003f0 67 49 3c bd 5a 65 07 bc ff a5 8d bd 5a b2 81 bd
       -0.04596844 -0.00826391 -0.06916427 -0.06332846

fc1.bias f4 [50]
000000 5b 5e c3 3b b7 73 6e 3d 61 db 96 3b 3d 8d 40 bc
       0.005962176 0.058215823 0.0046037887 -0.011752424
000010 67 bd 95 3c 22 8e 68 3d a4 ef 0f bd 1b 9b d4 3c
       0.01827879 0.056776173 -0.03514065 0.025952866
000020 93 c0 be 3c 81 ac 09 3d ea 82 43 bd d5 f8 0a 3c
       0.023285186 0.03361178 -0.04773227 0.008482178
000030 fd e6 f7 bc d3 07 ed bc 0c 06 5e 3d 92 43 8f 3c
       -0.030261511 -0.028934395 0.054204985 0.017488275
000040 47 46 81 3b 70 3d 07 bd 8f fb 4e bc 19 0e e7 3c
       0.0039451453 -0.033017576 -0.012633218 0.028204964
000050 60 37 58 3d 8b 5b 58 3c b6 46 48 bc 36 cf 2c bd
       0.052787185 0.013205419 -0.01222389 -0.0421898
000060 16 35 6c 3d c6 13 71 3d 22 d0 bb bc cc 98 b6 bc
       0.057667814 0.058856748 -0.022926394 -0.022289656
000070 c9 19 ef 3c d3 d7 be 3c 58 e9 d4 3c ab 43 a5 bb
       0.0291871 0.023296272 0.025990173 -0.005043467
000080 ba 38 be 3c 35 af 85 3d 9d 21 66 3d 5e 43 37 3c
       0.023220409 0.06527559 0.0561844 0.011185495
000090 e7 1d 04 3b fa f9 51 3d c2 91 11 bc 57 26 2b 3b
       0.0020159425 0.051263787 -0.008884849 0.0026115382
0000a0 d9 39 3a 3d 64 c7 4c bc 96 f4 75 3d aa 75 51 3d
       0.045465324 -0.01249871 0.06004771 0.051137604
0000b0 51 b2 47 3d 43 f3 1a bd 4f e4 18 bc ea 33 7a 3d
       0.04875404 -0.03782965 -0.009331777 0.061084665
0000c0 86 90 0a bd 8b d4 25 3d
       -0.033829235 0.0404859

fc2.weight f4 [10, 50]
000000 9e ed 3a be b9 18 a5 bd 82 7f 64 be 93 a5 c6 bd
       -0.18254706 -0.08061356 -0.22314265 -0.096995495
000010 5e c5 ab bd 9d b2 3d 3e 07 b1 49 be 1a 58 e7 3d
       -0.08387254 0.18525167 -0.19696437 0.11296101
000020 3b d5 64 be 97 4b 3a be 10 3f f2 bd 43 53 40 3e
       -0.22346966 -0.18192898 -0.118284345 0.18781762
000030 b8 20 28 3e 8d 86 00 3e 5c e7 34 be 93 18 43 bd
       0.16418731 0.12551327 -0.17666382 -0.047630858
000040 8a 43 55 3e 13 66 01 3e c6 c6 39 3e 9f e4 83 be
       0.20826545 0.12636594 0.18142232 -0.25760362
000050 96 44 19 3d 1a 9d 04 be bf bb 13 be 51 6b b4 bd
       0.037418924 -0.12950554 -0.14427088 -0.088095315
000060 c9 c0 35 be ff 7f ba 3d 36 ed e3 bb 27 d3 48 be
       -0.17749323 0.091064446 -0.006955768 -0.19611798
000070 1a 2b 35 3d f8 5a 11 3e 09 db ce bd 7b c0 0f be
       0.044230558 0.14194858 -0.101003714 -0.14038269
000080 72 a2 22 3e e2 5d 2a bd e6 7f 71 be eb 0b fa 3d
       0.1588228 -0.04159344 -0.23583946 0.122093044
000090 2f c6 1c be 6d b2 bd 3d b6 65 17 3e 97 1c 25 be
       -0.15309976 0.09262548 0.14784893 -0.16124187
0000a0 98 a3 af 3d d6 84 4c be 17 52 14 3e 3e 9d 18 3e
       0.08576125 -0.19972548 0.1448444 0.14903733
0000b0 52 68 78 bd bf 4e d8 3d c6 78 d1 bd 1b 43 f2 3d
       -0.060646363 0.105618946 -0.10228114 0.118292056
0000c0 f7 11 e6 3c 3f 67 ac 3d 48 47 2c 3e fa 9b 89 3e
       0.028084738 0.0841813 0.16824067 0.26876813
0000d0 85 cd 49 be 65 df 18 bd d6 81 88 bc bd 5b 2b bd
       -0.19707306 -0.03732242 -0.016663473 -0.041835535
0000e0 ff f5 b0 3d a0 53 f8 bd bc f3 7f 3e 10 0e 12 3e
       0.0864067 -0.12125325 0.24995321 0.14263177
0000f0 a1 40 00 be 27 8f cc bc 33 0f 91 bd b8 2d b1 bc
       -0.12524654 -0.024970604 -0.07082977 -0.021628246
000100 d3 ce 94 bd aa 16 ce bd fc af 1f 3d 2e 69 50 be
       -0.07266011 -0.100629166 0.03898619 -0.20352623
000110 93 1b 25 3e 9a 32 0d 3e f4 03 3b 3e ac 17 7c 3e
       0.161238 0.13788834 0.18263227 0.24618405
000120 83 e1 02 3e 1b 2f 32 3e eb 2a 2c 3e d4 5e 5f be
       0.12781338 0.17400782 0.16813247 -0.21813518
000130 82 c1 d3 bd 72 0e 18 be 35 e7 0e 3e 44 73 7e be
       -0.10339643 -0.1484926 0.13955386 -0.24848658
000140 0f ff d2 3d 43 e1 13 3e 9c 66 64 be 3f 6f c3 3d
       0.10302555 0.144414 -0.22304767 0.09542703
000150 4e df 53 be dc 2f 1a 3d 84 ff 09 3e 6d ab f7 bc
       -0.20690653 0.0376433 0.13476378 -0.03023311
000160 66 27 13 be de c7 2a be 84 bd 0b be 34 08 02 3e
       -0.14370498 -0.16677806 -0.13646513 0.12698442
000170 0a 37 57 be 28 c8 10 be 1e a3 3f be 78 3f d3 3d
       -0.2101709 -0.14138854 -0.18714568 0.1031484
000180 c9 36 0d 3e ec 8a fd bd b0 64 47 3e a3 cd 2a be
       0.1379043 -0.12380013 0.19472003 -0.16680007
000190 e6 be 3b 3e a9 78 46 bc 14 f0 f1 bd fd 25 d1 3d
       0.1833454 -0.012113729 -0.118133694 0.10212324
0001a0 ae b8 2d 3e 4a 28 d5 bd 71 9e 24 3e 5c 52 e5 3d
       0.16964981 -0.10408075 0.16076066 0.111973494
0001b0 11 51 f4 3d b4 5c 0f be 96 eb 87 3d d9 e7 33 3e
       0.11929525 -0.14000207 0.06636731 0.17568912
0001c0 10 7d 6c bd bc 83 f4 3d ae a1 f0 bd 43 40 d7 3d
       -0.057736456 0.11939189 -0.11749588 0.10510304
0001d0 d2 f6 e8 3d ba 17 fc 3d d2 2b a7 bd 3d 7d c8 bd
       0.11375202 0.12309213 -0.08162655 -0.09789512
0001e0 ff f8 d3 bd a9 19 b7 bd b9 98 59 be f9 5c 70 3e
       -0.103502266 -0.08940441 -0.21249665 0.23472966
0001f0 02 25 47 3e e3 7e 74 3d c3 4d a0 ba a0 8c c0 3c
       0.19447711 0.05969132 -0.0012230206 0.023504555
000200 74 8d 94 3d e4 d1 d7 3d 77 c2 f6 bd 5a 6f 4d bc
       0.072535425 0.1053808 -0.1204881 -0.012538755
000210 0a 42 39 3d 88 b2 22 3e 2c 3f 30 be b7 b6 c0 3d
       0.045228995 0.15888417 -0.17211598 0.0940985
000220 16 ca 1a be f3 87 0c be 0f cb d3 3d 42 e4 1a 3c
       -0.15116152 -0.13723736 0.10341465 0.009453835
000230 49 8d 10 bb 47 85 23 3e 22 58 21 3d 2b ea fb bc
       -0.0022056869 0.1596881 0.03939069 -0.030751308
000240 7c 0c 3d be 40 35 3a be 92 43 3a 3e a8 41 a1 bd
       -0.18461794 -0.18184376 0.18189839 -0.07873851
000250 c1 62 48 3e f9 04 56 be 7b 47 1e 3e 9d b6 15 be
       0.19568922 -0.20900334 0.15456955 -0.14620443
000260 c7 36 05 3e 2c 4e 4a bd 20 c5 47 3e 03 c2 35 be
       0.13009177 -0.049390957 0.19508791 -0.17749791
000270 54 dc f4 3d 3a 97 04 be 38 e0 8d 3e 95 2c 25 3e
       0.11956087 -0.12948313 0.27710128 0.16130288
000280 4b 8c 0b be 98 aa 59 3e 6d 24 90 bd 87 53 b1 bd
       -0.13627736 0.21256483 -0.07038198 -0.0865851
000290 9d 6b 1b bc 10 22 43 3e cb eb 35 be 0f 39 ae bd
       -0.009486106 0.19055963 -0.17765729 -0.08506977
0002a0 96 33 b6 bd b6 43 4a be e6 03 61 3e 89 a3 32 be
       -0.08896558 -0.19752392 0.21974143 -0.17445196
0002b0 1a b5 13 3e d4 a9 b5 3d 54 da 05 bd 98 03 ba 3d
       0.14424554 0.08870283 -0.032678917 0.09082717
0002c0 07 a0 47 be 8d 88 53 3c 2b a2 ca bd 4f 2f 20 be
       -0.1949464 0.012910974 -0.09894212 -0.15643047
0002d0 a7 8e 61 be ec cd 30 be fa db df 3d 9c 48 c3 3d
       -0.22027074 -0.17266053 0.10930629 0.095353335
0002e0 f5 03 d1 3d 9e 5f 5b bc 39 68 46 be 23 33 30 3e
       0.10205833 -0.013389496 -0.19375695 0.17207007
0002f0 b7 27 50 be 9c 95 08 bd 50 f3 db 3d bb 7d 1a 3e
       -0.2032765 -0.033345804 0.107397676 0.15087025
000300 ef af 19 bd 52 38 09 3e e2 46 a0 bd 20 70 17 be
       -0.0375213 0.1340039 -0.0782602 -0.14788866
000310 e5 03 c3 bd c1 ce 21 bd d0 f9 53 bd b9 6b 68 3d
       -0.09522227 -0.039503817 -0.05175191 0.056743357
000320 0f da 8c bd 15 d0 43 bd d6 dd 01 3e d5 de 5e bc
       -0.06877529 -0.047805864 0.1268228 -0.013602932
000330 e7 49 55 3c a8 b1 ca bd e0 dd 3d be 0c 6b 9e 3d
       0.013018108 -0.098971665 -0.1854167 0.07735261
000340 9c d9 de bd aa 20 41 3e e3 a3 1e 3e 76 b4 20 bd
       -0.108813494 0.18860117 0.15492205 -0.0392346
000350 0e 78 48 be cf c4 53 be de 4e 51 3e 5f 6f 30 be
       -0.19577047 -0.20680545 0.20440242 -0.17229985
000360 51 15 09 be 8e ad 14 3e 91 88 50 be c0 be 09 3e
       -0.13387038 0.14519331 -0.20364596 0.13451672
000370 7a a1 49 3d 66 05 7d 3e e2 9f 3a 3e 84 21 c9 bd
       0.04922626 0.2470909 0.18225053 -0.09820846
000380 43 97 25 be b0 84 3b be f3 69 6d 3e 98 d7 0d 3e
       -0.16170983 -0.18312335 0.23184948 0.13851774
000390 7f ee cb bd 2c 93 eb 3d 99 b5 16 bd 6b 62 b5 3d
       -0.09957599 0.1150268 -0.03679428 0.08856662
0003a0 58 eb d3 bc d5 e5 c9 3c 9d c3 16 3e e9 38 40 be
       -0.025869057 0.024645725 0.14723058 -0.1877171
0003b0 85 1e 2f bc 12 67 2d be 80 3c 30 3e ec 79 77 3e
       -0.010688429 -0.1693385 0.17210579 0.24167603
0003c0 4a 4c 5c be 6b 6c 0d be 37 40 8c be 08 e2 25 be
       -0.21513477 -0.1381089 -0.27392742 -0.16199505
0003d0 b4 be 09 3e 65 34 42 3d 13 5a 58 3e 3a ba 1b be
       0.13451654 0.04741325 0.2112811 -0.15207759
0003e0 80 d3 cf 3d 88 8e 1e be 48 24 1b be dd 63 cb bd
       0.10147762 -0.15484059 -0.15150559 -0.09931157
0003f0 0c 88 e2 3d 1d f5 fe 3d d3 98 0e be 7d 52 b7 3d
       0.11061105 0.124490954 -0.13925485 0.0895128

fc2.bias f4 [10]
000000 49 d5 40 be 55 a7 e8 3d c7 a2 e7 bc 14 6c 0b 3e
       -0.18831362 0.11360041 -0.02827586 0.13615447
000010 8b 8d 03 be b3 d2 16 3d fb 5e f3 bd 82 1e 15 be
       -0.12846963 0.036822032 -0.118833505 -0.14562419
000020 08 2f bb 3d 98 6e 11 3e
       0.0913983 0.14202344
