results/model.pth (torch_old, 88668 bytes, 8 tensors)

conv1.weight f4 [10, 1, 5, 5]
0.24663897 0.2125534 0.13752209 0.13219164 -0.050634686 -0.21970549 -0.10257135 -0.118384406
-0.10470452 -0.029417036 -0.15380542 -0.13809778 -0.09622154 0.040677 -0.008685797 0.20072065
-0.09998363 -0.12129933 0.13798523 0.03588101 -0.038074892 0.1770971 0.19846354 0.007542681
-0.08706279 0.04366334 0.17431426 0.092880495 -0.18576868 -0.12026898 -0.17290293 -0.10297602
0.14313939 0.21287034 0.025878698 0.054505683 0.005273939 -0.08980441 0.21580867 -0.074818626
-0.10845706 -0.035072003 0.12645468 -0.100831114 0.17521365 0.15078035 -0.081062436 -0.22024168
-0.051522 -0.06727105 0.0035052889 0.21761267 0.1267331 0.09823014 -0.26778808 0.16473144
0.3332518 -0.011407216 -0.31252754 -0.1511592 0.33038574 0.24434732 -0.039220024 -0.3599432
-0.03493145 0.3363835 0.3510852 -0.13556671 -0.15216166 -0.08988744 0.19049498 0.10534065
0.13628797 0.042022254 -0.05384861 -0.06615743 0.18926828 0.2809968 0.105563045 -0.21797952
0.13911799 0.10692624 0.2745605 -0.12848173 0.006732467 0.21727264 0.23349209 0.30065045
0.33708307 0.19291417 0.010110352 0.09211659 0.27667576 0.33166316 0.14857633 -0.08223153
-0.22662437 0.12173928 -0.012905226 0.26167142 0.2585268 0.41985083 0.43869558 0.14236136
0.022866843 -0.011714052 0.23329751 0.201183 0.078486614 0.18669154 -0.30614185 -0.18815142
-0.18603072 0.092091806 -0.035468116 -0.25012562 -0.21967019 -0.078014776 0.15209883 -0.08269637
-0.1345083 -0.011706518 0.06290854 0.08674463 -0.050334726 0.3611578 0.36794984 0.35398147
0.015089363 0.19154172 0.40159956 0.31252402 0.043780226 -0.06774664 -0.08622332 0.4070575
0.22151405 -0.22762455 -0.21439935 -0.047219172 0.19100885 0.01401325 -0.2048925 -0.10276231
-0.3134889 0.14036651 -0.05526176 -0.15987186 -0.05860317 -0.0056322683 0.06226784 0.11399124
-0.08505941 -0.31996626 -0.34940544 0.032400962 0.14983019 0.018610334 -0.0061098896 -0.15426266
0.017929755 0.1363681 0.01881761 -0.22986916 -0.1010552 0.13610561 0.20385453 0.28748858
0.2309789 0.25895485 -0.08777741 0.16240403 0.22076213 0.34518334 0.10316432 0.17475739
0.3028869 0.026476791 0.14253382 0.26076427 0.2610422 0.25241858 0.07972924 0.3065701
0.32206136 -0.07130954 0.012081937 0.085845776 -0.103626505 0.06292118 -0.35360113 -0.16721092
-0.024675502 -0.29104623 0.05182869 -0.3535766 -0.18232296 -0.42343262 -0.1236822 -0.34320262
-0.13141012 -0.14275229 -0.041653756 0.17152923 -0.1019794 -0.20313103 -0.06526725 0.04596814
0.22885706 -0.021463165 -0.07783614 -0.2150356 -0.019703418 -0.04571684 0.17807329 -0.25070947
-0.05478372 0.12632146 0.22306538 0.0058663078 -0.16029967 -0.12263331 0.058881197 0.22113685
0.22469018 -0.006475585 -0.09233907 0.17520995 0.04091019 0.20648164 -0.16985847 -0.10084569
-0.07084003 0.13642141 0.09622216 -0.19953267 -0.11231637 -0.129032 -0.14343803 0.15761927
-0.012692942 -0.06718954 -0.12173249 -0.2155294 -0.061406944 -0.16974811 0.12842067 -0.097926
0.08273102 -0.13438988
00000000: ed8e 7c3e 99a7 593e 97d2 0c3e 3f5d 073e
00000010: 5166 4fbd 7afa 60be ee10 d2bd 8673 f2bd
00000020: 536f d6bd fffb f0bc 2b7f 1dbe 8169 0dbe
00000030: cc0f c5bd ed9c 263d e04e 0ebc b789 4d3e
00000040: 38c4 ccbd c86b f8bd 004c 0d3e f7f7 123d
00000050: 6bf4 1bbd f158 353e 073a 4b3e 9828 f73b
00000060: fa4d b2bd 55d8 323d 707f 323e 2138 be3d
00000070: 253a 3ebe 954f f6bd 770d 31be 17e5 d2bd
00000080: 2293 123e affa 593e 90ff d33c 5a41 5f3d
00000090: 02d1 ac3b 60eb b7bd f3fc 5c3e 823a 99bd
000000a0: bc1e debd a9a7 0fbd 567d 013e 8b80 cebd
000000b0: 356b 333e 2a66 1a3e 1004 a6bd 0987 61be
000000c0: bc08 53bd 67c5 89bd fdb8 653b dbd5 5e3e
000000d0: 52c6 013e e22c c93d 851b 89be 5caf 283e
000000e0: fb9f aa3e 55e5 3abc 9c03 a0be 7ac9 1abe
000000f0: 5228 a93e 2f36 7a3e 2da5 20bd 7a4a b8be
00000100: 4814 0fbd 753a ac3e 70c1 b33e 00d2 0abe
00000110: 44d0 1bbe e816 b8bd 1e11 433e d7bc d73d
00000120: 138f 0b3e 871f 2c3d 5c90 5cbd 8c7d 87bd
00000130: 8bcf 413e d0de 8f3e 7031 d83d 0636 5fbe
00000140: f274 0e3e 25fc da3d 3293 8c3e b790 03be
00000150: 079c dc3b b87c 5e3e 8d18 6f3e dbee 993e
00000160: 2796 ac3e 4b8b 453e e4a5 253c 9fa7 bc3d
00000170: 72a8 8d3e c1cf a93e 6524 183e 0169 a8bd
00000180: 3810 68be 7252 f93d 7170 53bc ccf9 853e
00000190: a05d 843e b0f6 d63e b59c e03e 2dc7 113e
000001a0: 3f53 bb3c 4cec 3fbc 8be5 6e3e eb02 4e3e
000001b0: 97bd a03d 112c 3f3e a0be 9cbe c4aa 40be
000001c0: d67e 3ebe a19a bc3d 0447 11bd 7710 80be
000001d0: 39f1 60be 36c6 9fbd ccbf 1b3e b75c a9bd
000001e0: 8bbc 09be b2cc 3fbc 31d6 803d 2ba7 b13d
000001f0: c92b 4ebd ade9 b83e ec63 bc3e 0f3d b53e
00000200: 6039 773c 8323 443e 759e cd3e 2603 a03e
00000210: e552 333d c0be 8abd da95 b0bd d769 d03e
00000220: 94d4 623e 6916 69be 818b 5bbe e468 41bd
00000230: d397 433e d597 653c 57cf 51be 0c75 d2bd
00000240: 9e81 a0be 3dbc 0f3e 285a 62bd 73b5 23be
00000250: e109 70bd e48e b8bb 900c 7f3d 3d74 e93d
00000260: a133 aebd 9ed2 a3be 45e5 b2be dfb6 043d
00000270: 166d 193e b374 983c 7835 c8bb 08f7 1dbe
00000280: 6ce1 923c 14a4 0b3e 6327 9a3c d262 6bbe
00000290: 07f6 cebd 455f 0b3e 3ebf 503e b431 933e
000002a0: bc85 6c3e bb95 843e a5c4 b3bd 3e4d 263e
000002b0: 780f 623e dfbb b03e d147 d33d 9af3 323e
000002c0: fe13 9b3e dbe5 d83c 63f4 113e e582 853e
000002d0: 53a7 853e 023d 813e 1549 a33d c2f6 9c3e
000002e0: 3ae5 a43e bc0a 92bd 51f3 453c e9cf af3d
000002f0: 223a d4bd d2dc 803d 350b b5be 5739 2bbe
00000300: 4724 cabc 0304 95be 524a 543d fe07 b5be
00000310: dfb2 3abe 29cc d8be 184d fdbd 41b8 afbe
00000320: 6090 06be a82d 12be 219d 2abd 5ca5 2f3e
00000330: 93da d0bd 9501 50be d6aa 85bd 1749 3c3d
00000340: 8159 6a3e 85d3 afbc 8e68 9fbd 4b32 5cbe
00000350: 1069 a1bc 9541 3bbd d858 363e fe5c 80be
00000360: e564 60bd 6a5a 013e 406b 643e 283a c03b
00000370: 9925 24be 2c27 fbbd 692d 713d b371 623e
00000380: 2f15 663e 2531 d4bb 441c bdbd 3d6a 333e
00000390: 7291 273d ec6f 533e 61ef 2dbe 2f88 cebd
000003a0: 9414 91bd 0eb2 0b3e 2010 c53d 4b52 4cbe
000003b0: 2006 e6bd f720 04be 6be1 12be f266 213e
000003c0: 0ff6 4fbc ab9a 89bd e24e f9bd bdb3 5cbe
000003d0: d985 7bbd 73d2 2dbe b580 033e 6d8d c8bd
000003e0: e26e a93d 809d 09be

conv1.bias f4 [10]
0.14932153 -0.05503159 0.09214636 0.05782546 0.023951458 0.097352706 0.0628477 0.075502165
0.087057255 0.20870276
00000000: bee7 183e ce68 61bd 3bb7 bc3d 64da 6c3d
00000010: d935 c43c db60 c73d 4cb6 803d e1a0 9a3d
00000020: 134b b23d 2db6 553e

conv2.weight f4 [20, 10, 5, 5]
-0.006820033 0.038190663 -0.01150355 0.06302058 0.053562865 -0.026866173 0.020604823 0.022063658
0.027091019 0.01748606 0.027739998 -0.0026428192 0.060265742 -0.032880142 0.025709037 -0.0016356806
-0.041063853 0.028198633 0.049983345 -0.0018943516 0.00914828 -0.03387407 0.044434603 0.01087156
0.0063140797 0.066034496 -0.045974765 -0.0037517464 0.010277318 -0.00585777 0.0074741114 0.02059199
0.02104991 -0.04069598 -0.03737363 0.027285902 -0.017188815 0.05252401 -0.02519179 -0.0040408755
-0.03994316 0.048280183 0.053073846 -0.020656265 -0.062199023 0.03549142 -0.03250148 -0.027408196
-0.023874806 0.008220256 0.0655126 -0.04888714 -0.09992904 -0.004303946 0.014971943 -0.056597922
-0.11201304 -0.026193306 -0.09384645 0.0017557403 -0.073987 0.009411058 0.005440982 0.0007874594
-0.090411365 -0.04038159 0.02575052 -0.04140384 0.06294914 -0.03751334 0.01028418 0.09534536
0.07913288 0.0037056033 -0.014664976 0.080385886 0.059692618 -0.027748287 0.0847315 0.08380508
-0.049061947 -0.028288957 -0.06371825 -0.089091 -0.13173707 0.01821385 -0.052005067 -0.09885793
-0.14277835 -0.17299521 0.002469404 -0.038233023 -0.043161687 0.013079181 -0.03897869 -0.05943882
0.026496386 -0.00017837802 0.048560914 0.07030366 0.022382049 0.039039254 -0.08869852 0.030034317
0.08340312 0.049288116 0.06985822 0.12884384 0.024221193 -0.03808385 0.028850615 0.019829853
0.009774131 -0.035765 -0.03826506 0.058746982 0.04061384 0.038125597 -0.07051643 -0.06930371
0.037735514 0.055171568 0.076771274 0.06143407 0.03805899 -0.047005672 -0.088107765 -0.08650192
0.08615794 0.15963133 0.0065070703 0.05410765 -0.015581111 -0.008420503 0.051576857 -0.065707095
-0.06160014 -0.04270188 -0.016865602 -0.055847455 0.005331975 -0.055149272 -0.10186512 -0.1304365
-0.033353817 -0.027723003 -0.013702982 -0.02464157 -0.010116471 0.010273421 -0.0066315616 0.049469694
0.021075709 -0.0013279861 -0.09140366 0.052667044 -0.08836764 -0.039609343 -0.064920604 -0.0072170338
0.019644462 -0.012473283 -0.026325407 -0.06783739 -0.04114128 0.03406559 0.06103101 0.030904016
0.022742078 0.07392404 -0.009311772 -0.011916558 0.017059786 0.086221375 0.025322981 0.07555949
0.007444687 0.077565394 0.07241843 0.09501775 0.04549321 0.109968275 0.10915542 0.053863652
0.0874537 0.053767417 -0.020933328 0.051305164 0.003932799 0.0065728514 0.05016936 0.039677437
-0.015528052 0.015161341 -0.0644264 -0.05796279 0.021741148 -0.039651383 0.04908206 -0.014666972
0.0011775627 0.024104387 -0.06455964 0.03221377 0.008476223 0.00037717252 -0.06752363 -0.0958808
-0.06391229 -0.076381415 -0.031267498 0.025276514 0.027028337 0.0006239265 -0.042162895 -0.0013827919
0.044361126 -0.01584164 0.010129843 -0.026269874 0.027609862 0.048466202 -0.0058007003 -0.037182312
-0.09246268 -0.024475103 -0.038349528 -0.027098019 -0.062665254 -0.004409814 0.07726338 0.06330085
0.012767955 0.047916386 0.046316355 0.06799164 0.07000449 -0.027390314 -0.028205266 -0.064082265
0.021896608 0.025217667 0.0057503995 0.01789266 -0.060852498 0.008276585 0.008487939 0.04383852
-0.0630913 -0.047122475 -0.024580823 -0.05172739 -0.00086919434 -0.048329998 0.044468656 0.017602537
00000000: 957a dfbb d06d 1c3d 6379 3cbc ef10 813d
00000010: bc64 5b3d 7316 dcbc 72cb a83c d8be b43c
00000020: fced dd3c ed3e 8f3c fe3e e33c 2633 2dbb
00000030: 36d9 763d 54ad 06bd c29b d23c 5564 d6ba
00000040: 9232 28bd d200 e73c 56bb 4c3d e44b f8ba
00000050: abe2 153c 89bf 0abd 0f01 363d a11e 323c
00000060: 57e6 ce3b 183d 873d 0950 3cbd dcdf 75bb
00000070: 3262 283c 89f2 bfbb 64e9 f43b 88b0 a83c
00000080: dc70 ac3c d4b0 26bd 1715 19bd af86 df3c
00000090: 8fcf 8cbc 6b23 573d 035f cebc 5269 84bb
000000a0: 709b 23bd 71c1 453d f663 593d 5437 a9bc
000000b0: 67c4 7ebd 745f 113d 4620 05bd 2787 e0bc
000000c0: 1995 c3bc 41ae 063c 782b 863d e23d 48bd
000000d0: 99a7 ccbd 1e08 8dbb e14c 753c 39d3 67bd
000000e0: 1867 e5bd 5893 d6bc 9132 c0bd de20 e63a
000000f0: 7f86 97bd d730 1a3c 444a b23b 816d 4e3a
00000100: 9829 b9bd 2b67 25bd c1f2 d23c 1397 29bd
00000110: 7beb 803d 97a7 19bd fa7e 283c 6e44 c33d
00000120: 6b10 a23d b5d9 723b 5e45 70bc 5ba1 a43d
00000130: 3f80 743d 6050 e3bc b587 ad3d ffa1 ab3d
00000140: 2ef5 48bd 3ebe e7bc b77e 82bd 5875 b6bd
00000150: 15e6 06be 3635 953c 4403 55bd 0776 cabd
00000160: 7d34 12be a825 31be b9d5 213b 3b9a 1cbd
00000170: 4fca 30bd 104a 563c 1ea8 1fbd 1f76 73bd
00000180: f30e d93c fc0a 3bb9 cfe7 463d 5efb 8f3d
00000190: 8f5a b73c a0e7 1f3d 92a7 b5bd 870a f63c
000001a0: 41cf aa3d 56e2 493d d411 8f3d a4ef 033e
000001b0: 866b c63c d0fd 1bbd 2058 ec3c 3772 a23c
000001c0: ad23 203c 527e 12bd d3bb 1cbd ada0 703d
000001d0: b35a 263d 9629 1c3d eb6a 90bd 1aef 8dbd
000001e0: 8e90 1a3d 95fb 613d 423a 9d3d 4ba2 7b3d
000001f0: bee3 1b3d 0589 40bd d871 b4bd eb27 b1bd
00000200: 9373 b03d 6576 233e 4339 d53b fc9f 5d3d
00000210: eb47 7fbc 26f6 09bc 4142 533d 7191 86bd
00000220: 6e50 7cbd 2be8 2ebd bb29 8abc 4dc0 64bd
00000230: d9b7 ae3b 34e4 61bd a99e d0bd 2591 05be
00000240: 039e 08bd 5a1b e3bc 7982 60bc 1edd c9bc
00000250: 8ebf 25bc da51 283c 924d d9bb bca0 4a3d
00000260: f7a6 ac3c d20f aeba d831 bbbd 66b9 573d
00000270: 18fa b4bd 683d 22bd 18f5 84bd de7c ecbb
00000280: 6ced a03c be5c 4cbc 61a8 d7bc 54ee 8abd
00000290: c283 28bd 5c88 0b3d a7fb 793d 6b2a fd3c
000002a0: 984d ba3c 7d65 973d 6790 18bc ab3d 43bc
000002b0: f7c0 8b3c d594 b03d 2472 cf3c efbe 9a3d
000002c0: 90f2 f33b 9bda 9e3d 1d50 943d ab98 c23d
000002d0: 1757 3a3d 0c37 e13d e08c df3d 22a0 5c3d
000002e0: ed1a b33d 393b 5c3d 5f7c abbc 5d25 523d
000002f0: b6de 803b 1361 d73b 637e 4d3d cf84 223d
00000300: 5f69 7ebc 4667 783c fdf1 83bd 646a 6dbd
00000310: 7e1a b23c 7d69 22bd 450a 493d bd4d 70bc
00000320: 7358 9a3a 9076 c53c d837 84bd 96f2 033d
00000330: dbdf 0a3c 3dbf c539 d449 8abd 275d c4bd
00000340: 72e4 82bd dc6d 9cbd 5912 00bd b110 cf3c
00000350: 886a dd3c 008f 233a 00b3 2cbd cc3e b5ba
00000360: 03b4 353d 54c6 81bc a4f7 253c eb33 d7bc
00000370: 142e e23c 7f84 463d cd13 bebb 7b4c 18bd
00000380: 135d bdbd 0380 c8bc 6514 1dbd aafc ddbc
00000390: a456 80bd 3380 90bb 433c 9e3d e0a3 813d
000003a0: af30 513c f943 443d 38b6 3d3d 333f 8b3d
000003b0: 845e 8f3d a761 e0bc bb0e e7bc 903d 83bd
000003c0: 8460 b33c 4895 ce3c d96d bc3b a193 923c
000003d0: 7840 79bd 839a 073c ff10 0b3c 0590 333d
000003e0: 0336 81bd 7f03 41bd b95d c9bc 1ae0 53bd
000003f0: a5da 63ba adf5 45bd c424 363d 3233 903c

conv2.bias f4 [20]
0.053881377 0.005577417 -0.02603994 -0.02885904 -0.006584999 -0.067079425 -0.049711272 -0.024586031
-0.059611015 -0.029832667 -0.047209095 -0.05337963 -0.03317555 -0.023149705 0.011401565 -0.056534793
-0.039544027 -0.034000266 0.010562014 -0.0805568
00000000: b8b2 5c3d c4c2 b63b b651 d5bc cb69 ecbc
00000010: fac6 d7bb f060 89bd 0c9e 4bbd a568 c9bc
00000020: ae2a 74bd a363 f4bc 535e 41bd 99a4 5abd
00000030: 16e3 07bd 73a4 bdbc a1cd 3a3c 0791 67bd
00000040: ebf8 21bd dd43 0bbd 4c0c 2d3c f7fa a4bd

fc1.weight f4 [50, 320]
-0.021194777 -0.012179472 -0.042413555 0.019950882 -0.08018267 0.009800749 -0.006477554 -0.03358768
-0.027824631 -0.003896491 0.050597534 -0.07066896 0.03880865 0.015417508 0.0526011 -0.015971756
-0.07195942 -0.07544682 -0.06290563 0.02133079 -0.023596885 -0.008596664 -0.046234686 -0.020742236
0.04498353 0.013023272 -0.026160717 -0.0023220815 0.028549384 -0.0041436777 0.010483765 -0.06360429
-0.006394709 -0.077262245 -0.08083797 -0.042837285 -0.01777405 -0.04888757 -0.047840152 -0.058897402
0.0826627 -0.021968918 0.030390002 0.0009775652 0.06806753 0.05493716 0.024025373 -0.08022401
-0.034596313 0.03152919 0.003328903 -0.0068253186 -0.030518217 0.0030199063 -0.026589932 0.031468514
-0.06462794 0.053918656 -0.056424595 0.013148001 0.015682556 -0.0009186512 -0.032365996 0.0049767126
-0.034565303 -0.050524577 -0.084832534 -0.050567612 0.04665457 0.097381495 -0.0017347824 -0.06449671
0.053371087 0.090451896 -0.05315095 -0.03255649 -0.0024061752 -0.019626154 -0.022910878 -0.02352937
-0.03340682 0.026257968 0.0702643 -0.024094207 0.019043712 -0.0042795837 0.014683004 0.015323613
-0.0035893242 -0.05813151 -0.05175406 0.02443427 -0.0347595 -0.013029465 0.03498768 0.06239813
-0.052149862 -0.0039136624 0.023795016 -0.051993407 0.032721285 0.048701685 -0.0024554324 -0.00033058008
-0.028230576 0.051815037 0.046677124 0.0185553 -0.03771823 -0.021264521 -0.009080718 -0.054045036
0.006259245 0.12504709 -0.0011961451 0.038568586 0.046510246 -0.009041039 -0.014905224 -0.0012686074
-0.032433294 -0.023793453 -0.03531077 -0.021581894 0.004473329 0.051300686 -0.045649175 -0.07160316
-0.024112968 -0.04343797 0.016094802 -0.0035921156 -0.05432148 0.02375235 0.07424181 0.0011606183
-0.011330735 -0.04836603 -0.030000798 -0.0015398838 -0.04168258 0.034112114 0.051795788 0.04916956
0.030936798 0.056154266 0.03961942 0.06782911 0.020136572 -0.019811112 -0.019533992 0.05301623
0.01373977 0.00803655 -0.072181836 -0.06303172 0.003919141 0.06854382 -0.0555769 -0.008103024
0.023650719 0.013632074 0.018223505 0.024072476 0.009357167 0.0011423938 -0.022648806 -0.020441934
0.004942954 -0.014698488 0.010179633 -0.0041833613 0.020293498 -0.073057495 0.020639556 0.014161989
-0.03266357 -0.025970858 0.010472428 -0.02125603 -0.024457555 -0.032174237 -0.054508835 -0.078995034
0.018756855 0.00538215 0.04593339 -0.04679875 -0.0055069933 0.0017916873 0.068182714 -0.0914012
0.045332853 0.030242333 0.003584631 0.024033122 0.043022104 0.018949445 -0.06478665 0.0010637856
-0.034349747 -0.024778932 0.028446114 0.049100764 0.016611457 -0.013591544 -0.007465585 -0.009884369
0.044805776 0.024103403 -0.02338034 0.022103427 0.043587103 -0.041909814 0.020217638 0.046348184
-0.0023688595 0.0028775563 -0.05198773 -0.05306299 -0.007394371 0.059679892 0.064407654 0.0035289442
0.032440178 0.04135396 0.03174952 -0.014150379 0.017862635 0.02316239 0.026100885 -0.017273277
0.012153729 -0.031652253 -0.06900197 -0.0038689876 -0.0035094626 -0.020351062 -0.01094327 0.0037433172
0.03688399 0.045645196 0.049302783 0.041358847 -0.05974808 -0.052683305 -0.0053337784 0.049177457
0.03683986 -0.0387152 0.03148429 0.022137562 0.035247937 -0.038339585 -0.020160252 -0.019216714
00000000: aba0 adbc 688c 47bc d6b9 2dbd 0870 a33c
00000010: d036 a4bd 5293 203c a941 d4bb 3c93 09bd
00000020: 7bf0 e3bc 455c 7fbb 5c3f 4f3d e3ba 90bd
00000030: d2f5 1e3d b799 7c3c 4074 573d 33d7 82bc
00000040: 765f 93bd dd83 9abd abd4 80bd e9bd ae3c
00000050: 414e c1bc 06d9 0cbc 9560 3dbd 9feb a9bc
00000060: a640 383d 905f 553c 004f d6bc 102e 18bb
00000070: 66e0 e93c b0c7 87bb 19c4 2b3c f742 82bd
00000080: b58a d1bb ab3b 9ebd 618e a5bd 2676 2fbd
00000090: e29a 91bc 553e 48bd 09f4 43bd 673e 71bd
000000a0: 104b a93d 29f8 b3bc 74f4 f83c a521 803a
000000b0: fd66 8b3d ca05 613d dcd0 c43c 7c4c a4bd
000000c0: ddb4 0dbd c024 013d ba29 5a3b eca6 dfbb
000000d0: 5701 fabc 9fe9 453b 21d3 d9bc 21e5 003d
000000e0: a75b 84bd cfd9 5c3d 7a1d 67bd b76a 573c
000000f0: b478 803c a3d1 70ba 3592 04bd b113 a33b
00000100: 5994 0dbd dcf2 4ebd aebc adbd fc1f 4fbd
00000110: dd18 3f3d f36f c73d a361 e3ba da16 84bd
00000120: a49b 5a3d d83e b93d d0b4 59bd f459 05bd
00000130: ecb0 1dbb 07c7 a0bc 98af bbbc aac0 c0bc
00000140: 97d5 08bd f31a d73c bbe6 8f3d 3761 c5bc
00000150: 8f01 9c3c c03b 8cbb fb90 703c e40f 7b3c
00000160: de3a 6bbb 4e1b 6ebd 11fc 53bd 612a c83c
00000170: fa5f 0ebd 8a79 55bc 3e4f 0f3d 2e95 7f3d
00000180: 189b 55bd 2e3e 80bb c4ed c23c 0af7 54bd
00000190: c106 063d 6b7b 473d 52eb 20bb b551 adb9
000001a0: cf43 e7bc 013c 543d 8330 3f3d 4901 983c
000001b0: 6e7e 1abd ef32 aebc 4bc7 14bc 545e 5dbd
000001c0: 5a1a cd3b 580c 003e f8c7 9cba 18fa 1d3d
000001d0: 8781 3e3d de20 14bc 0a35 74bc 6747 a6ba
000001e0: c6d8 04bd 7dea c2bc 07a2 10bd 83cc b0bc
000001f0: 0195 923b ab20 523d a1fa 3abd ada4 92bd
00000200: 8f88 c5bc 03ec 31bd 3fd9 833c b369 6bbb
00000210: 3380 5ebd 4a94 c23c 170c 983d e31f 983a
00000220: 8ca4 39bc 751b 46bd 3cc4 f5bc edd5 c9ba
00000230: 5abb 2abd 25b9 0b3d d227 543d 0566 493d
00000240: 2b6f fd3c 0402 663d f947 223d fde9 8a3d
00000250: 74f5 a43c ea4a a2bc c005 a0bc 8c27 593d
00000260: c61c 613c bcab 033c 12d4 93bd c616 81bd
00000270: 236c 803b b460 8c3d 9aa4 63bd 8cc2 04bc
00000280: 27bf c13c 1059 5f3c 7649 953c a433 c53c
00000290: ce4e 193c 60bc 953a fd89 b9bc d875 a7bc
000002a0: 81f8 a13b edd1 70bc 7ac8 263c 9414 89bb
000002b0: 8d3e a63c 2b9f 95bd 4914 a93c b007 683c
000002c0: 3cca 05bd d6c0 d4bc 8c94 2b3c 2021 aebc
000002d0: 365b c8bc 22c9 03bd a844 5fbd 26c8 a1bd
000002e0: faa7 993c bf5c b03b a624 3c3d 0cb0 3fbd
000002f0: 0274 b4bb 0dd7 ea3a 61a3 8b3d 8d30 bbbd
00000300: f1ae 393d c5be f73c 21ec 6a3b 1ce1 c43c
00000310: f237 303d de3b 9b3c ddae 84bd b96e 8b3a
00000320: 52b2 0cbd 30fd cabc d307 e93c e21d 493d
00000330: c014 883c 11af 5ebc dea1 f4bb 0cf2 21bc
00000340: 4386 373d 8074 c53c 2088 bfbc 3f12 b53c
00000350: 6488 323d a0a9 2bbd 769f a53c 98d7 3d3d
00000360: de3e 1bbb 6295 3c3b 16f1 54bd 9458 59bd
00000370: 7b4c f2bb e772 743d 29e8 833d dc45 673b
00000380: fedf 043d c562 293d c90b 023d fed6 67bc
00000390: a954 923c 0dbf bd3c 86d1 d53c b080 8dbc
000003a0: 6f20 473c cba5 01bd e850 8dbd d78e 7dbb
000003b0: 03ff 65bb 45b7 a6bc 674b 33bc 7152 753b
000003c0: ab13 173d 75f6 3a3d b7f1 493d e567 293d
000003d0: 67ba 74bd 73ca 57bd fac6 aebb 4d6e 493d
000003e0: 65e5 163d d493 1ebd acf5 003d d559 b53c
000003f0: 2460 103d f809 1dbd 1d27 a5bc 5f6c 9dbc

fc1.bias f4 [50]
0.049837723 0.030295191 -0.01933751 0.056969568 0.08045562 -0.051762495 0.03627334 0.059232976
0.012837488 0.059644107 0.0025186196 -0.03718725 -0.036174223 0.02857725 0.057586286 0.019124094
-0.018364646 -0.0033123605 -0.027718449 0.05493602 0.0045640096 -0.0010150771 0.059664845 0.019517325
0.003776686 0.09203965 0.06253935 0.055730782 -0.03745924 0.07372671 -0.037145343 0.06140458
-0.019603068 0.059343614 0.015939957 0.012237937 -0.016483927 -0.016487345 -0.029165259 -0.038761
0.007963017 0.075068936 0.04816449 -0.021945538 0.0076495265 0.037591204 -0.033060316 0.07163272
-0.032880947 0.0034941826
00000000: a422 4c3d 9f2d f83c b369 9ebc ec58 693d
00000010: ebc5 a43d e904 54bd 5b93 143d 479e 723d
00000020: 5454 523c 614d 743d 6d0f 253b a851 18bd
00000030: 6c2b 14bd d61a ea3c 99df 6b3d 22aa 9c3c
00000040: 7471 96bc 3014 59bb cd11 e3bc 9804 613d
00000050: b08d 953b 560c 85ba 2063 743d cce2 9f3c
00000060: 4782 773b 497f bc3d a114 803d f645 643d
00000070: dc6e 19bd 08fe 963d b725 18bd 5e83 7b3d
00000080: 9d96 a0bc 4a12 733d 8394 823c a181 483c
00000090: 4d09 87bc 7810 87bc fbeb eebc dbc3 1ebd
000000a0: 5077 023c bebd 993d 2148 453d 21c7 b3bc
000000b0: e1a8 fa3b 3cf9 193d 416a 07bd 2db4 923d
000000c0: 2cae 06bd a8fe 643b

fc2.weight f4 [10, 50]
-0.10594463 -0.19507821 0.13160527 0.27035427 -0.09806822 -0.00223425 0.15589136 -0.21339369
0.09525458 -0.1778068 0.11101224 -0.02659484 -0.049611963 0.21135177 0.08853519 0.029110335
-0.03978958 0.1635864 0.15461954 0.07812962 -0.05466236 0.12789586 -0.22121522 0.14922105
-0.13414614 -0.19787142 -0.11512412 0.16911414 0.08362015 -0.28789157 0.20398213 0.1172612
-0.2162344 0.15670976 -0.25763604 0.04356059 0.010908896 0.1284301 -0.039950404 0.10497763
0.08544417 -0.14667588 -0.08846982 -0.09879807 -0.24331172 0.20646083 -0.20704216 0.18251072
-0.15096344 -0.04891107 -0.017500293 0.10298059 -0.23294209 -0.007593974 0.18518144 -0.204767
-0.15852454 0.19417198 0.20872745 0.08925966 -0.22538255 0.009907959 0.20873763 0.07735651
-0.11941771 -0.22604714 0.1496911 -0.12900813 -0.18493797 -0.2720416 0.124313526 -0.14944465
0.21840832 0.16482598 0.103542715 0.1657968 -0.16022356 -0.1633655 -0.08752138 0.10407196
0.08915887 -0.3055494 0.15914273 -6.960443e-06 -0.19977394 -0.07302146 -0.008831542 0.02494976
-0.10509211 0.13810141 -0.098664925 0.109138094 -0.17045796 0.030562075 -0.18026547 0.14853124
0.09850412 0.19960734 -0.059366547 0.22847502 -0.1106408 -0.19580506 0.019308945 0.27357703
0.18150415 0.055874053 0.11725519 0.22004573 -0.074928924 -0.24589317 -0.18125515 0.07896602
0.22195885 0.18553545 0.17422926 0.11083956 0.115861274 0.041416034 0.13682023 -0.15182102
0.12207979 -0.104021944 -0.048519257 -0.08056614 0.15850343 -0.1471594 0.08217366 -0.116279215
-0.12541176 -0.23283128 -0.0028091338 -0.10350177 -0.06396434 -0.00032373768 -0.15101759 0.19487913
0.13773733 0.11030347 0.03577784 0.020683317 -0.06785332 -0.09217248 -0.005444005 -0.0109591745
0.12639591 0.18255128 0.098184265 0.04883883 0.21217516 0.1156997 -0.14405492 0.11427902
0.11197948 -0.10370072 -0.02588519 -0.12758996 0.052379258 0.022704918 -0.09359367 0.15088542
-0.15150861 0.11788121 -0.02394056 0.051137187 -0.15767938 -0.119201444 -0.17098337 0.14197618
0.1386453 -0.15081061 0.024303405 -0.08735523 0.264064 0.15317753 0.20149857 -0.19249687
0.1699994 -0.1387374 0.052723087 -0.16507855 -0.11078066 -0.22510312 -0.16596206 0.15194659
0.100838356 0.21134831 0.17042847 -0.04766098 0.23600622 -0.082233556 -0.13264652 -0.09291795
-0.19134787 -0.0056713494 0.14289403 0.026113138 0.12873046 -0.1650367 0.16313048 0.013113161
0.20686716 -0.015592113 -0.17892776 -0.018725155 -0.16422144 0.19354054 -0.20553984 -0.13457082
0.22219092 0.083852135 -0.13242383 0.1440192 0.0041454807 0.09921498 0.08071658 0.10999327
-0.14955963 -0.12949431 -0.31238347 0.10672094 -0.038779993 -0.07690841 -0.08991486 -0.19560547
0.18766569 0.13982825 0.17628874 -0.2177138 0.18386118 0.07074502 0.008715602 0.09620271
0.17156333 -0.23190558 0.12144653 -0.025476756 -0.20910968 -0.11084108 -0.058021743 0.20852375
0.25221574 -0.1900899 0.21728875 -0.016509663 0.14197709 0.044316452 -0.047510438 -0.02622877
-0.038518094 0.20524308 0.0417059 -0.043541934 0.15071073 -0.06561587 0.003115037 -0.23099953
00000000: 80f9 d8bd 95c2 47be 88c3 063e e06b 8a3e
00000010: fed7 c8bd 7f6c 12bb fca1 1f3e e083 5abe
00000020: d514 c33d fc12 36be 635a e33d 6cdd d9bc
00000030: ea35 4bbd 996c 583e f051 b53d cc78 ee3c
00000040: 66fa 22bd 3183 273e 9654 1e3e 6c02 a03d
00000050: a4e5 5fbd 22f7 023e 3e86 62be 67cd 183e
00000060: 9b5d 09be ce9e 4abe 32c6 ebbd 422c 2d3e
00000070: 0b41 ab3d 8666 93be b1e0 503e a426 f03d
00000080: 8d6c 5dbe 8678 203e dfe8 83be 976c 323d
00000090: 3abb 323c 2e83 033e 09a3 23bd 83fe d63d
000000a0: 5afd ae3d 3432 16be aa2f b5bd a456 cabd
000000b0: b526 79be 786a 533e dc02 54be 17e4 3a3e
000000c0: 2996 1abe f956 48bd c65c 8fbc 7de7 d23d
000000d0: 5f88 6ebe dfd6 f8bb 34a0 3d3e 71ae 51be
000000e0: 4254 22be 05d5 463e a6bc 553e c5cd b63d
000000f0: afca 66be fe54 223c 51bf 553e 176d 9e3d
00000100: 4691 f4bd e778 67be a048 193e b51a 04be
00000110: 6160 3dbe 0949 8bbe 1798 fe3d 0508 19be
00000120: 6ea6 5f3e 24c8 283e 340e d43d a3c6 293e
00000130: a511 24be 4949 27be 693e b3bd ae23 d53d
00000140: ed98 b63d f970 9cbe 50f6 223e c08d e9b6
00000150: 8a91 4cbe 468c 95bd 2cb2 10bc 7063 cc3c
00000160: 883a d7bd 756a 0d3e d610 cabd cb83 df3d
00000170: 888c 2ebe 515d fa3c 8397 38be 9318 183e
00000180: 87bc c93d de65 4c3e 562a 73bd 5bf5 693e
00000190: a597 e2bd 1f81 48be cb2d 9e3c 4a12 8c3e
000001a0: 39dc 393e 31dc 643d 7d23 f03d ab53 613e
000001b0: 5674 99bd 6bcb 7bbe f39a 39be f0b8 a13d
000001c0: 2e49 633e 01fd 3d3e 2869 323e daff e23d
000001d0: ad48 ed3d dca3 293d 9a1a 0c3e f876 1bbe
000001e0: f804 fa3d 7509 d5bd 21bc 46bd dcff a4bd
000001f0: b94e 223e f4b0 16be aa4a a83d cc23 eebd
00000200: f16b 00be 536b 6ebe 7219 38bb bcf8 d3bd
00000210: bcff 82bd 56bb a9b9 5ba4 1abe 658e 473e
00000220: 040b 0d3e c9e6 e13d c98b 123d 0f70 a93c
00000230: aef6 8abd edc4 bcbd a063 b2bb 1c8e 33bc
00000240: ee6d 013e b9ee 3a3e d514 c93d 3a0b 483d
00000250: 7244 593e f7f3 ec3d 2283 13be 1e0b ea3d
00000260: 7f55 e53d 0b61 d4bd 2e0d d4bc f1a6 02be
00000270: a28b 563d aaff b93c 0aae bfbd b581 1a3e
00000280: 1325 1bbe b46b f13d fe1e c4bc 3a75 513d
00000290: b476 21be e31f f4bd 4416 2fbe 3462 113e
000002a0: 09f9 0d3e 196e 1abe ef17 c73c 4ce7 b2bd
000002b0: 6633 873e 92da 1c3e a455 4e3e e61d 45be
000002c0: 5314 2e3e 2d11 0ebe 2af4 573d 5a0a 29be
000002d0: f8e0 e2bd 6f81 66be f5f1 29be e397 1b3e
000002e0: 5784 ce3d b16b 583e cd84 2e3e 2938 43bd
000002f0: 9dab 713e 116a a8bd 7dd4 07be c44b bebd
00000300: b2f0 43be bad6 b9bb d052 123e 38eb d53c
00000310: ebd1 033e 61ff 28be ad0b 273e 95d8 563c
00000320: fcd4 533e 1076 7fbc d738 37be 7f65 99bc
00000330: aa29 28be 7e2f 463e 0979 52be efcc 09be
00000340: 0486 633e abba ab3d 1d9a 07be c579 133e
00000350: d0d6 873b 3931 cb3d bc4e a53d 2744 e13d
00000360: 2926 19be 289a 04be baf0 9fbe 8290 da3d
00000370: c5d7 1ebd 2882 9dbd 4825 b8bd cd4c 48be
00000380: 6f2b 403e 232f 0f3e 0985 343e 5ef0 5ebe
00000390: 1b46 3c3e c4e2 903d e2cb 0e3c ed05 c53d
000003a0: 4cae 2f3e a878 6dbe f5b8 f83d a1b4 d0bc
000003b0: d920 56be a600 e3bd 35a8 6dbd 4087 553e
000003c0: 6c22 813e eda6 42be f180 5e3e 463f 87bc
000003d0: 7162 113e 2b85 353d 4e9a 42bd b8dd d6bc
000003e0: 26c5 1dbd 3e2b 523e ced3 2a3d 0759 32bd
000003f0: ea53 1a3e 9d61 86bd a625 4c3b 248b 6cbe

fc2.bias f4 [10]
-0.16127504 0.22915943 -0.0006689578 0.041728064 -0.13301899 -0.038401492 0.03479817 0.07622827
0.034416966 0.03614261
00000000: 4925 25be c5a8 6a3e ff5c 2fba 0ceb 2a3d
00000010: 2136 08be e24a 1dbd 8788 0e3d 911d 9c3d
00000020: cef8 0c3d 460a 143d
