results/model.pth (torch_old, 88668 bytes, 8 tensors)

conv1.weight f4 [10, 1, 5, 5]
0.012853803 -0.15980788 0.025527054 -0.023685064 -0.013727197 -0.12078433 0.17967354 0.17374387
-0.04868753 -0.038541432 0.02387209 0.024221662 0.0030738548 0.24777156 0.2627496 0.1641264
-0.11363696 0.33818617 0.31238103 0.11040174 0.13347946 -0.016081886 0.05949567 0.22371012
-0.10687259 -0.14676972 -0.21307318 -0.076565534 0.057102434 0.031801466 0.10269572 -0.13702255
0.15341987 -0.094836906 0.046909824 -0.13459158 0.24115768 0.07980557 0.08257378 -0.029325116
0.2900605 0.034871884 -0.11625545 0.22719043 -0.10179925 0.13252066 -0.00010206859 0.046096504
0.055228863 -0.041071977 -0.0073784296 0.038375743 0.03937359 0.23420368 -0.00044632016 0.053509653
-0.08387923 0.2991834 0.0800116 -0.10828917 0.05621951 0.21241629 0.055261668 0.084079
0.10828118 0.057498027 0.2902065 0.21742176 0.12836063 -0.06872353 0.26635945 0.061637603
-0.030230846 0.12782152 -0.100751296 0.20693092 -0.13196525 0.201314 0.0029179447 -0.1686997
0.23280041 0.23575991 0.3043398 0.060105376 -0.048867956 0.03174757 0.3695466 0.38449097
0.3446626 0.23204122 0.11509632 0.3030789 0.33792993 0.35728404 -0.0242157 0.09636254
0.14908518 0.22060466 0.16032737 0.20678218 -0.24070491 -0.09048353 0.14489463 0.18295325
-0.051241495 -0.23865643 0.016687803 0.2910528 0.15517299 -0.20296942 0.092245415 0.10137666
0.267063 0.018736454 -0.08690846 -0.092351295 0.22148941 0.042189956 0.16882078 -0.16713054
-0.09446142 0.30859396 0.23925011 0.112111375 0.03766568 0.02851872 0.11576613 -0.21623038
-0.20346579 -0.24073675 0.17615037 -0.06169262 0.096413225 -0.1536407 0.10933029 0.12623562
0.26492682 -0.086843 0.05305885 0.14046702 0.32745996 0.30238745 0.16275145 -0.019988718
-0.044949833 0.12398358 -0.12819484 0.11653424 0.11137877 0.08603285 0.1829598 0.1091953
-0.18903928 -0.16936888 -0.046641495 0.19742776 0.14943346 -0.16694964 -0.040698376 -0.21457613
0.27563 0.025518065 -0.015588939 -0.052154902 -0.16855037 0.008902236 -0.10425006 0.123859406
0.055137705 -0.1829087 0.15721709 -0.14269358 0.043466166 0.013280809 0.0044475286 -0.057561997
-0.15120693 0.097135894 -0.15594463 -0.16566359 0.07098476 0.026904704 0.023110913 -0.13762443
-0.10483272 -0.16768782 -0.08286473 -0.06635726 0.021241952 -0.16067877 -0.121567376 0.14255857
0.23651177 -0.12022401 -0.1000643 0.19504724 0.13952267 -0.015405399 0.24906018 0.10223086
0.21552111 0.14014763 -0.16822644 -0.13639207 0.026357353 0.11150917 -0.036807224 -0.16785821
0.00025493818 0.14697196 -0.16144311 -0.07819995 -0.12624514 0.153897 -0.092478044 0.02497281
-0.11517124 -0.14824389 -0.03891094 0.23651291 -0.15609078 -0.18377563 -0.12380419 0.1343228
0.104184575 -0.17111011 -0.09506816 -0.15517709 -0.020031063 0.21942933 -0.15507884 -0.16275397
-0.10136257 0.013183659 -0.054769877 -0.19928917 0.002951597 0.1661647 0.03245096 -0.051692266
0.043145355 0.0401047 -0.026281718 0.15633826 0.09823795 -0.073613085 0.018978652 -0.12400256
0.26612428 0.19078712
00000000: c298 523c ada4 23be 1d1e d13c 2e07 c2bc
00000010: 0ae8 60bc c65d f7bd 57fc 373e eae9 313e
00000020: 936c 47bd 9fdd 1dbd 678f c33c 826c c63c
00000030: ba72 493b d4b7 7d3e 1e87 863e c010 283e
00000040: 7fba e8bd bd26 ad3e 68f0 9f3e 4f1a e23d
00000050: d7ae 083e 29be 83bc bbb1 733d 4414 653e
00000060: 04e0 dabd cd4a 16be db2f 5abe 64ce 9cbd
00000070: 3ee4 693d 4142 023d 2252 d23d a44f 0cbe
00000080: 191a 1d3e da39 c2bd 8424 403d 60d2 09be
00000090: 0af2 763e 1a71 a33d 711c a93d 3a3b f0bc
000000a0: cf82 943e d2d5 0e3d 5617 eebd 9ca4 683e
000000b0: 207c d0bd 7fb3 073e a80d d6b8 b0cf 3c3d
000000c0: a937 623d 173b 28bd c1c6 f1bb e22f 1d3d
000000d0: 3446 213d 17d3 6f3e 1400 eab9 f02c 5b3d
000000e0: e0c8 abbd 912e 993e 1fdd a33d b6c6 ddbd
000000f0: 6e46 663d a883 593e 0f5a 623d 9c31 ac3d
00000100: 86c2 dd3d 0d83 6b3d f295 943e cfa3 5e3e
00000110: f870 033e ecbe 8cbd 4460 883e b677 7c3d
00000120: aea6 f7bc a5e3 023e b256 cebd b3e5 533e
00000130: e621 07be 4225 4e3e fd3a 3f3b 9dbf 2cbe
00000140: 3b63 6e3e 0c6b 713e 6dd2 9b3e 0e31 763d
00000150: c429 48bd bd09 023d 3635 bd3e 00dc c43e
00000160: 9e77 b03e 379c 6d3e 9fb7 eb3d 282d 9b3e
00000170: 2705 ad3e efed b63e 0160 c6bc b959 c53d
00000180: c9a9 183e 30e6 613e dc2c 243e b5be 533e
00000190: 597b 76be 6e4f b9bd 425f 143e 1958 3b3e
000001a0: 9ae2 51bd 5a62 74be dcb4 883c df04 953e
000001b0: abe5 1e3e 37d7 4fbe 2aeb bc3d 919e cf3d
000001c0: 7bbc 883e 317d 993c 10fd b1bd ad22 bdbd
000001d0: 1fce 623e 60cf 2c3d 5bdf 2c3e 4524 2bbe
000001e0: fd74 c1bd 0700 9e3e fbfd 743e a69a e53d
000001f0: 5447 1a3d 17a0 e93c cb16 ed3d 7f6b 5dbe
00000200: 5659 50be b283 76be c360 343e 67b1 7cbd
00000210: 4c74 c53d fd53 1dbe 8fe8 df3d e943 013e
00000220: 7da4 873e beda b1bd 3d54 593d 96d6 0f3e
00000230: d5a8 a73e 87d2 9a3e 51a8 263e 61bf a3bc
00000240: 511d 38bd 1aeb fd3d 8245 03be 81a9 ee3d
00000250: 8d1a e43d fe31 b03d d059 3b3e c9a1 df3d
00000260: 8393 41be 096f 2dbe 270b 3fbd 812a 4a3e
00000270: 1605 193e d9f4 2abe 57b3 26bd d8b9 5bbe
00000280: 601f 8d3e 430b d13c c068 7fbc 61a0 55bd
00000290: 7898 2cbe afda 113c 0e81 d5bd 00aa fd3d
000002a0: 13d8 613d 6b4c 3bbe 84fd 203e 441e 12be
000002b0: 9409 323d c097 593c 93bc 913b 21c6 6bbd
000002c0: fdd5 1abe 2fef c63d f3af 1fbe b7a3 29be
000002d0: 7560 913d 4167 dc3c 1953 bd3c 6bed 0cbe
000002e0: 89b2 d6bd 5bb6 2bbe fcb4 a9bd 51e6 87bd
000002f0: 9a03 ae3c fa88 24be 51f8 f8bd e0fa 113e
00000300: 2430 723e 0138 f6bd 83ee ccbd 77ba 473e
00000310: 08df 0e3e ed66 7cbc a209 7f3e 6a5e d13d
00000320: 91b1 5c3e dc82 0f3e 8d43 2cbe 5daa 0bbe
00000330: 60eb d73c eb5e e43d 2cc3 16bd 06e3 2bbe
00000340: 39a9 8539 d17f 163e 5851 25be 4c27 a0bd
00000350: 6846 01be 2d97 1d3e 2165 bdbd c793 cc3c
00000360: e6de ebbd 3fcd 17be 1461 1fbd 7130 723e
00000370: 43d6 1fbe ae2f 3cbe 0d8d fdbd eb8b 093e
00000380: b95e d53d 7d37 2fbe 18b3 c2bd bee6 1ebe
00000390: 2f18 a4bc 15b2 603e fdcc 1ebe faa8 26be
000003a0: 2e97 cfbd 4600 583c 6156 60bd 7612 4cbe
000003b0: 956f 413b 1427 2a3e 4ceb 043d 45bb 53bd
000003c0: 2fb9 303d d344 243d c24c d7bc 2317 203e
000003d0: fa30 c93d 75c2 96bd 1e79 9b3c 0ef5 fdbd
000003e0: 7141 883e b35d 433e

conv1.bias f4 [10]
0.084594734 -0.10496762 -0.006437155 0.012104373 0.07389947 0.20858598 0.08733375 -0.13080473
0.22100914 0.08681605
00000000: 0140 ad3d 43f9 d6bd c5ee d2bb 6c51 463c
00000010: 9b58 973d 9097 553e 0adc b23d adf1 05be
00000020: 3850 623e 9dcc b13d

conv2.weight f4 [20, 10, 5, 5]
-0.08695378 -0.04690446 0.03453546 0.009675555 0.107449725 -0.025468213 0.026317338 0.08554258
0.0500766 0.03435167 0.070257716 0.044159446 0.07032369 0.022124743 0.026447073 -0.043189477
-0.0358464 -0.006394979 -0.0801908 -0.10749063 -0.037910942 -0.0040366626 -0.060829654 -0.057988063
-0.0773387 -0.06500124 -0.023216708 -0.07061765 -0.011361799 0.01012782 -0.031235492 0.053730577
0.00034721376 0.043748055 0.045738414 0.007323546 0.029978137 0.08617127 0.0136060305 0.051453132
0.06298229 -0.026747722 -0.080419645 -0.06296193 0.04851792 -0.02456997 -0.074517794 -0.03321006
-0.003055756 -0.02759053 -0.002605533 -0.011976533 -0.03613991 0.0070474236 -0.015972776 -0.050069954
0.023650674 0.058333695 0.07771335 0.04721929 -0.039634466 0.012122778 0.06359697 0.08075884
-0.038272865 0.06755771 0.04301274 0.009647313 -0.102634445 -0.032505758 0.04973666 -0.037271943
-0.09914526 -0.08172931 0.00010889891 -0.07014605 -0.07584278 0.046938688 0.072807305 0.12433987
-0.0035147567 0.010309933 0.09126922 0.16480854 0.13996987 0.05561909 -9.401317e-05 -0.014510128
-0.0070926133 0.07686509 0.057757657 0.02673326 -0.14647664 -0.15236494 -0.0888378 -0.037156712
0.004247807 -0.032179665 -0.024864122 -0.08883678 0.03389979 -0.03597156 -0.058877118 -0.0073361658
-0.0027614946 0.041388944 0.00605414 0.022776939 0.06373824 0.10563958 -0.053414464 0.07229338
0.0068623293 -0.03670328 0.010205057 0.014810339 -0.013339585 -0.02877247 -0.11425399 -0.037375465
-0.04494987 -0.096041724 -0.04359784 -0.083527535 -0.043659113 -0.04190628 -0.0018982659 -0.013997435
0.029255498 -0.005857202 -0.0021904977 0.064118855 0.08026101 0.053129677 0.04280046 0.070882946
-0.020446327 0.08017359 0.010809517 0.020449828 -0.012838257 0.009448289 0.010681977 -0.08324991
-0.026940431 -0.0015801871 0.027921371 -0.040200673 0.05497788 0.029120555 0.02137959 0.05408555
-0.024111468 0.025041647 0.049428046 0.006580757 -0.042519074 -0.05641398 0.032919075 0.054062065
-0.021694617 -0.08093716 -0.05937904 0.017526831 -0.049632344 0.010943589 -0.057605606 -0.027642539
-0.06407503 0.016984824 0.021774655 0.056427658 0.059569802 0.042356987 -0.027450358 -0.030868886
-0.037050903 -0.0336775 0.043665133 0.025839567 0.045799106 0.068053715 0.05069865 0.020144342
0.018532144 -0.042430248 0.04695911 -0.03056648 0.007123236 0.008600352 -0.01191734 -0.03190377
-0.027444392 -0.039216965 -0.06226066 0.04192183 0.06535056 -0.04111691 0.06464073 -0.043856747
0.016183117 0.046170514 0.060292773 -0.04836688 -0.05209607 0.03352158 -0.0537465 0.04247925
-0.0034065035 -0.029683923 -0.057702538 -0.0008711534 -0.07351482 0.013579109 0.09143263 -0.02594352
-0.07133892 0.06128237 0.05364092 0.015710056 -0.048184518 -0.056326557 -0.0458431 -0.002333467
-0.00021393829 0.01320979 0.044557363 -0.00957611 -0.012403995 0.0946936 0.052625097 0.042440735
0.06762866 0.08020002 0.011990297 0.05505453 0.019397827 0.0126425065 -0.069915615 -0.053715624
-0.033978254 -0.06927956 -0.061992567 -0.057031456 -0.024922378 -0.012754996 0.0016449051 -0.03225437
0.05186729 0.012859758 0.027198182 0.02301622 -0.05838285 -0.0042837975 -0.026692947 -0.04006801
00000000: d314 b2bd e41e 40bd 0e75 0d3d 3886 1e3c
00000010: 9a0e dc3d b7a2 d0bc 7597 d73c f330 af3d
00000020: 1f1d 4d3d 56b4 0c3d 47e3 8f3d 89e0 343d
00000030: de05 903d f33e b53c 88a7 d83c 73e7 30bd
00000040: add3 12bd f98c d1bb 133b a4bd 0c24 dcbd
00000050: 8148 1bbd fb45 84bb 8428 79bd e484 6dbd
00000060: c163 9ebd 5f1f 85bd f730 bebc fd9f 90bd
00000070: d726 3abc 28ef 253c 93e1 ffbc 9814 5c3d
00000080: 3e0a b639 2931 333d 3458 3b3d 5bfa ef3b
00000090: b694 f53c 907a b03d d4eb 5e3c 85c0 523d
000000a0: dcfc 803d 0a1e dbbc 0eb3 a4bd 2ff2 80bd
000000b0: baba 463d f646 c9bc c99c 98bd 4607 08bd
000000c0: 1443 48bb 8905 e2bc 97c1 2abb 3839 44bc
000000d0: 7107 14bd 13ee e63b 57d9 82bc 2716 4dbd
000000e0: 0fbf c13c 50ef 6e3d 2d28 9f3d 0469 413d
000000f0: c057 22bd 9e9e 463c 213f 823d e464 a53d
00000100: 02c4 1cbd b25b 8a3d 202e 303d c30f 1e3c
00000110: 0232 d2bd c224 05bd abb8 4b3d 77aa 18bd
00000120: ac0c cbbd b261 a7bd a860 e438 bba8 8fbd
00000130: 7653 9bbd c842 403d ff1b 953d e7a5 fe3d
00000140: d557 66bb feea 283c 5beb ba3d 92c3 283e
00000150: 4354 0f3e d8d0 633d f028 c5b8 e3bb 6dbc
00000160: 2769 e8bb 726b 9d3d 4b93 6c3d b6ff da3c
00000170: f9fd 15be 8e05 1cbe 98f0 b5bd a331 18bd
00000180: 3031 8b3b d3ce 03bd d8af cbbc 0ff0 b5bd
00000190: 82da 0a3d ea56 13bd 2229 71bd 3864 f0bb
000001a0: 31fa 34bb 7487 293d cf61 c63b b496 ba3c
000001b0: 3289 823d 9059 d83d 20c9 5abd 8d0e 943d
000001c0: 64dd e03b 2e56 16bd 1d33 273c 10a7 723c
000001d0: 468e 5abc 3eb4 ebbc fffd e9bd 0417 19bd
000001e0: 5b1d 38bd 86b1 c4bd a693 32bd 7c10 abbd
000001f0: e6d3 32bd eba5 2bbd 3ccf f8ba 7f55 65bc
00000200: 3aa9 ef3c c6ed bfbb 748e 0fbb bf50 833d
00000210: e25f a43d 819e 593d 894f 2f3d 142b 913d
00000220: 0e7f a7bc 0d32 a43d 671a 313c 6686 a73c
00000230: 8d57 52bc ffcc 1a3c 7503 2f3c ee7e aabd
00000240: 2eb2 dcbc 481e cfba 5cbb e43c 76a9 24bd
00000250: 7c30 613d 3b8e ee3c 4024 af3c cf88 5d3d
00000260: 6a85 c5bc 2424 cd3c 1075 4a3d 64a3 d73b
00000270: 7b28 2ebd 5812 67bd 27d6 063d 2f70 5d3d
00000280: e9b8 b1bc 62c2 a5bd 7037 73bd 6e94 8f3c
00000290: 494b 4bbd bd4c 333c dbf3 6bbd 9b72 e2bc
000002a0: c539 83bd c223 8b3c c360 b23c b020 673d
000002b0: 77ff 733d 857e 2d3d 93df e0bc bfe0 fcbc
000002c0: b0c2 17bd 6bf1 09bd 36da 323d 80ad d33c
000002d0: d897 3b3d bf5f 8b3d 63a9 4f3d bf05 a53c
000002e0: b9d0 973c 57cb 2dbd 3258 403d 8e66 fabc
000002f0: 096a e93b 7ee8 0c3c f240 43bc 87ad 02bd
00000300: 10d3 e0bc f8a1 20bd 0905 7fbd 3ab6 2b3d
00000310: 84d6 853d 346a 28bd 5c62 843d 22a3 33bd
00000320: 7592 843c 4b1d 3d3d 8ef5 763d 591c 46bd
00000330: b062 55bd ed4d 093d 4a25 5cbd b9fe 2d3d
00000340: a53f 5fbb b32b f3bc 7f59 6cbd 1d5e 64ba
00000350: f08e 96bd e97a 5e3c 0841 bb3d 8187 d4bc
00000360: 241a 92bd 3903 7b3d 95b6 5b3d 60b2 803c
00000370: 215d 45bd adb6 66bd f9c5 3bbd 14ed 18bb
00000380: 9f54 60b9 e06d 583c c881 363d 1ee5 1cbc
00000390: 203a 4bbc b8ee c13d 6a8d 573d 56d6 2d3d
000003a0: e580 8a3d e83f a43d f372 443c dc80 613d
000003b0: 31e8 9e3c 8422 4f3c eb2f 8fbd ea04 5cbd
000003c0: c82c 0bbd 71e2 8dbd ebeb 7dbd d199 69bd
000003d0: 042a ccbc 55fa 50bc db99 d73a 291d 04bd
000003e0: cc72 543d bcb1 523c b9ce de3c 838c bc3c
000003f0: db22 6fbd 195f 8cbb 2bab dabc 5b1e 24bd

conv2.bias f4 [20]
-0.022300776 -0.0049094716 0.010036564 0.03593982 0.034004502 -0.03148584 -0.01253812 -0.037469037
0.00729815 -0.02533607 0.033511296 0.019676011 0.011753746 -0.029736467 0.011326523 0.033506013
-0.026046427 -0.035800133 -0.005082355 0.01590783
00000000: 1eb0 b6bc a2df a0bb 6770 243c a235 133d
00000010: 4e48 0b3d 4cf7 00bd b06c 4dbc 2279 19bd
00000020: 5225 ef3b 978d cfbc 2443 093d 962f a13c
00000030: c992 403c e499 f3bc e192 393c 9a3d 093d
00000040: 515f d5bc 29a3 12bd e289 a6bb 2351 823c

fc1.weight f4 [50, 320]
-0.0532421 -0.019904004 -0.0089419605 0.018583117 -0.01795099 0.07318614 0.022465656 -0.07640549
0.025249243 -0.048701078 0.025526999 0.051224176 -0.03525249 -0.03693907 -0.030447327 -0.03405002
0.03963524 -0.04316063 0.037717663 -0.025974495 0.056017388 -0.037780117 -0.005899975 0.009621316
-0.048089787 -0.009562951 0.04354482 0.040130444 0.034726873 -0.03198898 -0.004189195 0.01807925
-0.054831892 0.02728597 -0.017551916 -0.023853464 -0.0018497417 0.08104075 0.06695738 -0.018451404
-9.168752e-05 -0.045584936 -0.0018906029 -0.023631893 0.03471269 -0.0074488386 -0.0059850393 -0.064012185
0.01675284 -0.05470121 -0.040764816 -0.070258304 -0.041719582 -0.012053068 0.017849466 0.05350021
0.02287515 -0.004630049 -0.051713947 -0.0064649847 0.005636458 0.014233456 0.04147113 0.05233723
0.029234808 0.043867856 0.05326306 0.04946654 0.005850182 0.07319641 -0.048885323 0.026810162
-0.049330182 0.0416685 -0.06190132 -0.015463447 -0.05547877 -0.039679706 0.0041189557 -0.041022997
0.049274642 0.019816888 -0.016892102 0.016423596 -0.02960507 0.0036087267 -0.06389821 -0.009009275
0.028540019 0.013230177 0.021592708 -0.063710496 -0.009487523 0.018337622 -0.016473282 0.0063832663
-0.022470348 0.014056966 -0.03728408 0.008999985 -0.017282248 0.004903166 -0.041026648 0.03529575
-0.037933275 0.018518018 0.04161736 -0.024367243 0.054515533 0.020933028 0.016848909 0.026389644
0.055847675 0.040565986 0.01101304 0.02503984 0.095716864 -0.058067076 -0.025110025 -0.018854147
-0.098540016 -0.06677665 -0.018989518 -0.030156622 -0.031140149 0.01667653 0.015032692 -0.03543217
-0.00403404 0.0068583176 0.069855765 0.030077362 0.041098405 -0.0144861275 0.04384849 0.013436243
-0.11311131 0.009497156 0.024629762 0.007111541 -0.07227012 0.06368351 -0.029249748 0.0008401137
0.043082435 0.0483398 0.036875274 -0.0073731 -0.0071197827 0.021939972 -0.042480268 0.02158295
0.020611288 0.048349656 -0.06517925 -0.01838177 -0.005340986 -0.0036119667 0.012014796 0.035831183
-0.012099173 -0.04582856 -0.04751731 -0.034452282 -0.013231351 0.010134546 0.02622907 0.035091005
0.03990891 0.057045776 0.020144684 0.005796574 0.0128881885 -0.017810574 -0.029195767 0.0044779154
0.0046594357 0.040103164 0.010781895 -0.04777308 -0.0078123934 -0.026207527 0.027073896 -0.00037066257
0.05320308 -0.009517929 -0.0024011342 0.08140777 -0.025426779 -0.015622761 0.059670616 -0.0029599888
0.026152663 -0.018618912 -0.038470816 0.028849574 0.00056722603 -0.007007724 -0.0226109 -0.0049046683
-0.0072780796 0.028990181 -0.029777355 0.0054382696 0.052038163 0.02393638 0.04379092 -0.007515995
0.0393181 -0.06659467 0.036951456 0.01944312 -0.008364207 -0.0033300645 0.06456072 -0.004845309
-0.056764055 0.026604049 -0.024008991 -0.051660925 -0.044489946 0.022615643 -0.014917363 -0.02110795
0.027907962 0.01622268 -0.05929947 0.029329928 -0.0592553 0.035729263 0.013211009 0.015034588
0.060490888 -0.030753057 -0.0024892397 0.007013886 -0.0048699463 -0.026514959 -0.008446134 0.020548193
-0.0102349715 0.03326089 -0.05906706 -0.063525744 -0.034738563 0.069411725 0.014108904 0.0034018015
0.029591361 0.011163398 0.0078098583 0.010258524 0.00526145 0.011406487 0.04896661 0.05468805
00000000: 6314 5abd b90d a3bc 4d81 12bc 9f3b 983c
00000010: f40d 93bc 9de2 953d e509 b83c 7b7a 9cbd
00000020: 80d7 ce3c c87a 47bd ff1d d13c 71d0 513d
00000030: ea64 10bd 6c4d 17bd ac6c f9bc 0978 0bbd
00000040: 9058 223d 33c9 30bd d67d 1a3d 77c8 d4bc
00000050: 7d72 653d 53bf 1abd 9454 c1bb b9a2 1d3c
00000060: ccf9 44bd ecad 1cbc 0e5c 323d d25f 243d
00000070: c43d 0e3d e006 03bd 8445 89bb ef1a 943c
00000080: 6897 60bd d486 df3c 09c9 8fbc 5768 c3bc
00000090: 0873 f2ba b1f8 a53d f320 893d 6627 97bc
000000a0: 5d48 c0b8 45b7 3abd 1bce f7ba ac97 c1bc
000000b0: e52e 0e3d 6315 f4bb 261e c4bb d218 83bd
000000c0: 403d 893c 600e 60bd 02f9 26bd 96e3 8fbd
000000d0: 27e2 2abd 3b7a 45bc 0b39 923c 0923 5b3d
000000e0: ab64 bb3c abb7 97bb 01d2 53bd 39d8 d3bb
000000f0: 09b2 b83b 7133 693c a2dd 293d 905f 563d
00000100: d67d ef3c c8ae 333d 5e2a 5a3d 6d9d 4a3d
00000110: e2b2 bf3b 00e8 953d fa3b 48bd fca0 db3c
00000120: 720e 4abd 97ac 2a3d 3d8c 7dbd 665a 7dbc
00000130: b53d 63bd 3087 22bd 4ef8 863b bb07 28bd
00000140: 35d4 493d 0757 a23c 4e61 8abc c78a 863c
00000150: 5586 f2bc 6380 6c3b 11dd 82bd a39b 13bc
00000160: c2cc e93c 62c3 583c 31e3 b03c a67a 82bd
00000170: 8e71 1bbc c838 963c faf2 86bc b82a d13b
00000180: bc13 b8bc 304f 663c 31b7 18bd ac74 133c
00000190: 8093 8dbc bdaa a03b 8f0b 28bd 4792 103d
000001a0: ec5f 1bbd 19b3 973c f776 2a3d d09d c7bc
000001b0: ae4b 5f3d be7b ab3c b906 8a3c 182f d83c
000001c0: 88c0 643d 8528 263d 0a70 343c 5a20 cd3c
000001d0: 3407 c43d bed7 6dbd 8ab3 cdbc 0374 9abc
000001e0: 59cf c9bd 32c2 88bd e88f 9bbc 050b f7bc
000001f0: a019 ffbc 389d 883c ae4b 763c 5321 11bd
00000200: fb2f 84bb bdbb e03b 8a10 8f3d cd64 f63c
00000210: cd56 283d 3957 6dbc 799a 333d b023 5c3c
00000220: e7a6 e7bd f699 1b3c 5bc4 c93c ee07 e93b
00000230: 5b02 94bd 806c 823d 2b9d efbc 133b 5c3a
00000240: 3577 303d f4ff 453d 870a 173d 0c9a f1bb
00000250: 114d e9bb 75bb b33c caff 2dbd bace b03c
00000260: 01d9 a83c 4a0a 463d b37c 85bd 5e95 96bc
00000270: 7003 afbb bfb6 6cbb b5d9 443c b8c3 123d
00000280: 9c3b 46bc bab6 3bbd 83a1 42bd d61d 0dbd
00000290: 4fc8 58bc 5e0b 263c 59de d63c 96bb 0f3d
000002a0: 8677 233d d5a8 693d 7706 a53c 30f1 bd3b
000002b0: fb28 533c 7be7 91bc f62b efbc 7abb 923b
000002c0: 2eae 983b 3743 243d 8ca6 303c b5ad 43bd
000002d0: 1bff ffbb 2bb1 d6bc 13ca dd3c 7d55 c2b9
000002e0: 79eb 593d 16f1 1bbc 595c 1dbb 1eb9 a63d
000002f0: d24b d0bc 9cf6 7fbc 2d69 743d 5ffc 41bb
00000300: 1c3e d63c b086 98bc 9393 1dbd f155 ec3c
00000310: e5b1 143a 0da1 e5bb 7f3a b9bc 57b7 a0bb
00000320: f57c eebb d17c ed3c a4ef f3bc 8333 b23b
00000330: f825 553d 3a16 c43c 1c5e 333d bc48 f6bb
00000340: 040c 213d c962 88bd 695a 173d 2e47 9f3c
00000350: 070a 09bc 363d 5abb 6938 843d 66c5 9ebb
00000360: 6d81 68bd bcf0 d93c 81ae c4bc 689a 53bd
00000370: 173b 36bd 7144 b93c f567 74bc 94ea acbc
00000380: 3d9f e43c 6de5 843c 00e4 72bd 5145 f03c
00000390: afb5 72bd d958 123d fd72 583c a253 763c
000003a0: 4bc5 773d d6ed fbbc 8322 23bb bdd4 e53b
000003b0: 1294 9fbb e635 d9bc a761 0abc af54 a83c
000003c0: 95b0 27bc 923c 083d 4df0 71bd c919 82bd
000003d0: 064a 0ebd bc27 8e3d 0829 673c c2f0 5e3b
000003e0: 9569 f23c afe6 363c d7e9 ff3b 5e13 283c
000003f0: 3e68 ac3b 46e2 3a3c 3691 483d 9400 603d

fc1.bias f4 [50]
0.056107745 -0.04110666 0.009424984 -0.038088072 0.028072098 0.035722204 -0.04189998 0.0020045498
0.071823455 0.0562698 -0.02119652 -0.011477291 -0.016503267 0.042510737 0.05410742 0.027273836
0.022552418 -0.0187615 -0.030449081 0.04120023 -0.017251607 -0.024938269 0.02309276 0.0042527267
0.032956775 -0.032465816 -0.047125652 -0.021410134 0.020196402 0.03999719 0.06404205 0.005129414
-0.05287873 0.013606726 0.03921389 0.057602953 0.054433424 -0.03438611 0.0317114 -0.04175859
0.046778105 0.010417733 -0.043826565 0.01626324 0.0015888031 0.04099002 0.061783057 0.050034788
0.052775674 0.022235086
00000000: 3cd1 653d 755f 28bd 406b 1a3c 3d02 1cbd
00000010: 75f7 e53c 7251 123d 509f 2bbd c45e 033b
00000020: 2d18 933d 297b 663d 53a4 adbc 3f0b 3cbc
00000030: dc31 87bc bd1f 2e3d be9f 5d3d 616d df3c
00000040: d9bf b83c b8b1 99bc 5a70 f9bc 93c1 283d
00000050: 3e53 8dbc 574b ccbc 072d bd3c 755a 8b3b
00000060: affd 063d e0fa 04bd d406 41bd 4e64 afbc
00000070: ed72 a53c 18d4 233d 7a28 833d a514 a83b
00000080: 5e97 58bd bfee 5e3c be9e 203d 13f1 6b3d
00000090: 95f5 5e3d 73d8 0cbd d0e3 013d 0e0b 2bbd
000000a0: 669a 3f3d 24af 2a3c 7c83 33bd 7c3a 853c
000000b0: 633f d03a 27e5 273d 3b10 7d3d 47f1 4c3d
000000c0: 4e2b 583d 5b26 b63c

fc2.weight f4 [10, 50]
0.14906237 -0.03615209 -0.047393575 -0.057665322 -0.06942712 -0.055833098 0.07416636 -0.12996095
0.09649407 -0.063557446 -0.013952568 0.19939645 -0.04816397 -0.20797086 -0.09689774 -0.07994532
0.04029385 -0.10890325 -0.05575406 0.16735815 0.09433859 0.07211575 -0.18867865 -0.059670348
-0.13424444 -0.18601783 -0.11370757 -0.1862291 -0.18683514 0.14960466 0.21418793 -0.13453314
-0.13127698 -0.033395786 -0.091583036 0.08979437 0.1799828 0.07163821 -0.15249269 -0.13972367
-0.18977027 -0.18609194 0.21122496 0.11189437 -0.059460465 0.13047837 -0.18083476 -0.1569892
-0.17333455 9.8050456e-05 -0.11264172 0.10120429 0.07410765 -0.043574125 0.09963801 0.01472609
-0.046315696 0.13806048 0.09801355 -0.12903698 0.08039543 -0.1801207 -0.12331972 0.063674994
0.01300348 -0.12542313 -0.265653 -0.19674987 -0.16746187 -0.16856727 0.0006783037 -0.16594014
0.13384938 -0.09119728 -0.0632211 -0.19967982 -0.017338647 -0.013985294 0.059085064 0.08113828
-0.23533611 -0.06171446 -0.07094808 -0.18227582 -0.11770219 0.24396797 -0.0031422605 -0.095434956
0.22787456 0.22223371 0.011328312 0.13654795 0.16324778 -0.04480041 0.12179457 -0.12505408
0.17795403 0.121151865 -0.031647958 0.15977438 -0.1309395 0.071322575 0.078027494 -0.12014095
0.009091633 -0.1191222 -0.056789577 0.09543071 0.03456008 -0.074081846 0.11195205 -0.054904804
-0.07121875 -0.19455276 -0.14055806 0.08318503 0.036220875 0.15177432 -0.09345276 0.17097652
0.021687033 -0.090066336 0.098324396 -0.028932434 -0.021330811 0.043901842 0.08095298 -0.10533002
0.077716775 0.1354741 -0.008438861 0.06765182 -0.18900068 0.1375668 -0.09340959 -0.037763067
0.011051038 -0.088789694 0.19232278 0.016378924 0.14928666 0.080959246 0.018071018 0.16946533
-0.12838276 0.07314018 -0.12515245 0.028402304 0.18414384 -0.005957551 -0.023322372 -0.08612794
-0.061180558 -0.04879156 -0.023518343 -0.058628213 -0.09912537 -0.07190223 0.186039 0.23942594
0.06753501 -0.1702865 -0.09445629 -0.05805617 -0.16774912 0.15787262 -0.15164375 -0.019052334
-0.16262014 -0.006829508 -0.108775385 0.06980148 0.06642416 0.22622614 -0.11640422 0.07445669
-0.05034004 0.054984596 0.032319188 0.116017625 -0.10297832 -0.082484804 0.05466279 0.09654679
0.013595779 -0.033902675 0.17817576 0.0038999913 0.00812178 -0.082707494 0.19513054 -0.13720918
-0.0962827 0.13758983 0.118465506 -0.045387533 0.00016644779 0.09559542 0.028929193 0.044251435
0.14996181 0.085529946 -0.18013704 0.057838343 0.19883616 -0.10975846 0.028343795 -0.08862466
-0.22857046 -0.14728607 0.12241576 -0.09503209 0.06912513 0.17017472 0.08681929 -0.121801145
0.10733005 0.15924753 0.09977411 0.08719341 -0.19282052 -0.07976345 -0.11524826 -0.09079576
0.02658388 0.14144498 0.23011309 0.12369212 -0.05198608 -0.14786725 0.014339125 -0.15886784
0.09076835 -0.17226285 -0.084058456 0.08104609 0.019138448 -0.046616435 -0.01960181 -0.016232966
-0.039754067 0.08395063 0.0027094437 -0.17073001 -0.049357224 0.007680482 0.19102946 -0.070502944
-0.069301456 0.031522743 0.08972949 0.048984483 -0.14201477 0.12816028 -0.16150492 -0.1603477
00000000: cea3 183e 3714 14bd c41f 42bd 7932 6cbd
00000010: ce2f 8ebd 3fb1 64bd 88e4 973d 7c14 05be
00000020: af9e c53d 682a 82bd 5099 64bc 952e 4c3e
00000030: 9547 45bd 50f6 54be 5372 c6bd 5fba a3bd
00000040: 2a0b 253d ab08 dfbd 5f5e 64bd ef5f 2b3e
00000050: 9734 c13d 6cb1 933d fa34 41be e568 74bd
00000060: 6077 09be 757b 3ebe 84df e8bd d7b2 3ebe
00000070: b651 3fbe f731 193e 1554 5b3e 0ec3 09be
00000080: 796d 06be 05ca 08bd e38f bbbd 1ce6 b73d
00000090: 694d 383e 0eb7 923d 0b27 1cbe b913 0fbe
000000a0: 2353 42be e38e 3ebe 5b4b 583e e028 e53d
000000b0: d18c 73bd 1f9c 053e bf2c 39be c7c1 20be
000000c0: 9d7e 31be 70a0 cd38 b4b0 e6bd 3244 cf3d
000000d0: c0c5 973d c87a 32bd 030f cc3d b345 713c
000000e0: 87b5 3dbd ba5f 0d3e 54bb c83d 4522 04be
000000f0: 5ca6 a43d 9071 38be 0d8f fcbd 0968 823d
00000100: 8c0c 553c ec6e 00be ac03 88be cc78 49be
00000110: 207b 2bbe e69c 2cbe 31d0 313a 36ec 29be
00000120: d00f 093e a4c5 babd 107a 81bd de78 4cbe
00000130: c709 8ebc 9322 65bc 2e03 723d d42b a63d
00000140: f3fb 70be 4dc8 7cbd 3a4d 91bd 83a6 3abe
00000150: d90d f1bd bdd2 793e 62ee 4dbb 6773 c3bd
00000160: f357 693e 3c91 633e 629a 393c 3ad3 0b3e
00000170: 6d2a 273e a280 37bd 6e6f f93d 2d0e 00be
00000180: 9539 363e 781e f83d 4aa1 01bd e59b 233e
00000190: 0115 06be 9211 923d e1cc 9f3d 750c f6bd
000001a0: 13f5 143c 57f6 f3bd 309c 68bd 2d71 c33d
000001b0: df8e 0d3d 39b8 97bd 1e47 e53d dce3 60bd
000001c0: 23db 91bd d738 47be 74ee 0fbe ea5c aa3d
000001d0: 575c 143d ba6a 1b3e 2964 bfbd 7814 2f3e
000001e0: 01a9 b13c b374 b8bd 4d5e c93d b603 edbc
000001f0: f4bd aebc 6bd2 333d adca a53d 44b7 d7bd
00000200: f929 9f3d b9b9 0a3e 2643 0abc 0a8d 8a3d
00000210: 6589 41be 50de 0c3e 874d bfbd 72ad 1abd
00000220: 6a0f 353c 5fd7 b5bd 43f0 443e 182d 863c
00000230: 9ade 183e f6cd a53d ac09 943c 5288 2d3e
00000240: c576 03be 85ca 953d f727 00be f3ab e83c
00000250: 3490 3c3e 8f37 c3bb 8f0e bfbc d863 b0bd
00000260: 7798 7abd a9d9 47bd 8aa9 c0bc 2324 70bd
00000270: 3e02 cbbd 7a41 93bd 0281 3e3e 132c 753e
00000280: cc4f 8a3d 965f 2ebe 4d72 c1bd 4ecc 6dbd
00000290: 6dc6 2bbe 5ca9 213e 8048 1bbe a413 9cbc
000002a0: e585 26be 11ca dfbb a1c5 debd 14f4 8e3d
000002b0: 6409 883d d3a7 673e 5665 eebd c07c 983d
000002c0: 5c31 4ebd 8737 613d 2061 043d a69a ed3d
000002d0: 4ce6 d2bd cbed a8bd 17e6 5f3d 53ba c53d
000002e0: d5c0 5e3c 88dd 0abd b573 363e ff96 7f3b
000002f0: 3711 053c 8c62 a9bd 4dd0 473e 9080 0cbe
00000300: dd2f c5bd 59e4 0c3e 0b9e f23d 47e8 39bd
00000310: 7d88 2e39 88c7 c33d eafc ec3c fe40 353d
00000320: 978f 193e 532a af3d d875 38be e6e7 6c3d
00000330: b59b 4b3e 0bc9 e0bd 3f31 e83c d980 b5bd
00000340: 600e 6abe 29d2 16be 1db5 fa3d 2fa0 c2bd
00000350: 7a91 8d3d 4842 2e3e 50ce b13d e172 f9bd
00000360: dbcf db3d c911 233e 5e56 cc3d 7592 b23d
00000370: be72 45be 055b a3bd 4807 ecbd 21f3 b9bd
00000380: 70c6 d93c f4d6 103e c4a2 6b3e 4b52 fd3d
00000390: 5bef 54bd 836a 17be a6ee 6a3c 40ae 22be
000003a0: c2e4 b93d ac65 30be d726 acbd 7efb a53d
000003b0: 3cc8 9c3c e0f0 3ebd fa93 a0bc fffa 84bc
000003c0: 29d5 22bd 4fee ab3d ec90 313b d9d3 2ebe
000003d0: cd2a 4abd 8eac fb3b 3a9d 433e d963 90bd
000003e0: eced 8dbd fe1d 013d 18c4 b73d f4a3 483d
000003f0: 526c 11be 733c 033e 8c61 25be 3032 24be

fc2.bias f4 [10]
0.078170165 -0.061765235 -0.04533435 0.085004695 -0.1330934 0.11690615 0.03804213 0.015913483
0.040034037 0.038542807
00000000: ae17 a03d 8bfd 7cbd 83b0 39bd f116 ae3d
00000010: a349 08be 7e6c ef3d 11d2 1b3d fe5c 823c
00000020: bbfa 233d 10df 1d3d
